…
I1113 14:16:53.371001  7572 upgrade_proto.cpp:66] Attempting to upgrade input file specified using deprecated input fields: C:/Models/Caffe/deploy_googlenetCAM.prototxt
I1113 14:16:53.373003  7572 upgrade_proto.cpp:69] Successfully upgraded file specified using deprecated input fields.
W1113 14:16:53.373003] Note that future Caffe releases will only support input layers and not input fields.
I1113 14:16:53.378007  7572 net.cpp:49] Initializing net from parameters: 
name: "GoogleNet"
force_backward: true
state {
  phase: TEST
}
layer {
  name: "input"
  type: "Input"
  top: "data"
  input_param {
    shape {
      dim: 1
      dim: 3
      dim: 224
      dim: 224
    }
  }
}
layer {
  name: "conv1/7x7_s2"
  type: "Convolution"
  bottom: "data"
  top: "conv1/7x7_s2"
  param {
    lr_mult: 1
    decay_mult: 1
  }
  param {
    lr_mult: 2
    decay_mult: 0
  }
  convolution_param {
    num_output: 64
    pad: 3
    kernel_size: 7
    stride: 2
    weight_filler {
      type: "xavier"
      std: 0.1
    }
    bias_filler {
      type: "constant"
      value: 0.2
    }
  }
}
layer {
  name: "conv1/relu_7x7"
  type: "ReLU"
  bottom: "conv1/7x7_s2"
  top: "conv1/7x7_s2"
}
layer {
  name: "pool1/3x3_s2"
  type: "Pooling"
  bottom: "conv1/7x7_s2"
  top: "pool1/3x3_s2"
  pooling_param {
    pool: MAX
    kernel_size: 3
    stride: 2
  }
}
layer {
  name: "pool1/norm1"
  type: "LRN"
  bottom: "pool1/3x3_s2"
  top: "pool1/norm1"
  lrn_param {
    local_size: 5
    alpha: 0.0001
    beta: 0.75
  }
}
layer {
  name: "conv2/3x3_reduce"
  type: "Convolution"
  bottom: "pool1/norm1"
  top: "conv2/3x3_reduce"
  param {
    lr_mult: 1
    decay_mult: 1
  }
  param {
    lr_mult: 2
    decay_mult: 0
  }
  convolution_param {
    num_output: 64
    kernel_size: 1
    weight_filler {
      type: "xavier"
      std: 0.1
    }
    bias_filler {
      type: "constant"
      value: 0.2
    }
  }
}
layer {
  name: "conv2/relu_3x3_reduce"
  type: "ReLU"
  bottom: "conv2/3x3_reduce"
  top: "conv2/3x3_reduce"
}
layer {
  name: "conv2/3x3"
  type: "Convolution"
  bottom: "conv2/3x3_reduce"
  top: "conv2/3x3"
  param {
    lr_mult: 1
    decay_mult: 1
  }
  param {
    lr_mult: 2
    decay_mult: 0
  }
  convolution_param {
    num_output: 192
    pad: 1
    kernel_size: 3
    weight_filler {
      type: "xavier"
      std: 0.03
    }
    bias_filler {
      type: "constant"
      value: 0.2
    }
  }
}
layer {
  name: "conv2/relu_3x3"
  type: "ReLU"
  bottom: "conv2/3x3"
  top: "conv2/3x3"
}
layer {
  name: "conv2/norm2"
  type: "LRN"
  bottom: "conv2/3x3"
  top: "conv2/norm2"
  lrn_param {
    local_size: 5
    alpha: 0.0001
    beta: 0.75
  }
}
layer {
  name: "pool2/3x3_s2"
  type: "Pooling"
  bottom: "conv2/norm2"
  top: "pool2/3x3_s2"
  pooling_param {
    pool: MAX
    kernel_size: 3
    stride: 2
  }
}
layer {
  name: "inception_3a/1x1"
  type: "Convolution"
  bottom: "pool2/3x3_s2"
  top: "inception_3a/1x1"
  param {
    lr_mult: 1
    decay_mult: 1
  }
  param {
    lr_mult: 2
    decay_mult: 0
  }
  convolution_param {
    num_output: 64
    kernel_size: 1
    weight_filler {
      type: "xavier"
      std: 0.03
    }
    bias_filler {
      type: "constant"
      value: 0.2
    }
  }
}
layer {
  name: "inception_3a/relu_1x1"
  type: "ReLU"
  bottom: "inception_3a/1x1"
  top: "inception_3a/1x1"
}
layer {
  name: "inception_3a/3x3_reduce"
  type: "Convolution"
  bottom: "pool2/3x3_s2"
  top: "inception_3a/3x3_reduce"
  param {
    lr_mult: 1
    decay_mult: 1
  }
  param {
    lr_mult: 2
    decay_mult: 0
  }
  convolution_param {
    num_output: 96
    kernel_size: 1
    weight_filler {
      type: "xavier"
      std: 0.09
    }
    bias_filler {
      type: "constant"
      value: 0.2
    }
  }
}
layer {
  name: "inception_3a/relu_3x3_reduce"
  type: "ReLU"
  bottom: "inception_3a/3x3_reduce"
  top: "inception_3a/3x3_reduce"
}
layer {
  name: "inception_3a/3x3"
  type: "Convolution"
  bottom: "inception_3a/3x3_reduce"
  top: "inception_3a/3x3"
  param {
    lr_mult: 1
    decay_mult: 1
  }
  param {
    lr_mult: 2
    decay_mult: 0
  }
  convolution_param {
    num_output: 128
    pad: 1
    kernel_size: 3
    weight_filler {
      type: "xavier"
      std: 0.03
    }
    bias_filler {
      type: "constant"
      value: 0.2
    }
  }
}
layer {
  name: "inception_3a/relu_3x3"
  type: "ReLU"
  bottom: "inception_3a/3x3"
  top: "inception_3a/3x3"
}
layer {
  name: "inception_3a/5x5_reduce"
  type: "Convolution"
  bottom: "pool2/3x3_s2"
  top: "inception_3a/5x5_reduce"
  param {
    lr_mult: 1
    decay_mult: 1
  }
  param {
    lr_mult: 2
    decay_mult: 0
  }
  convolution_param {
    num_output: 16
    kernel_size: 1
    weight_filler {
      type: "xavier"
      std: 0.2
    }
    bias_filler {
      type: "constant"
      value: 0.2
    }
  }
}
layer {
  name: "inception_3a/relu_5x5_reduce"
  type: "ReLU"
  bottom: "inception_3a/5x5_reduce"
  top: "inception_3a/5x5_reduce"
}
layer {
  name: "inception_3a/5x5"
  type: "Convolution"
  bottom: "inception_3a/5x5_reduce"
  top: "inception_3a/5x5"
  param {
    lr_mult: 1
    decay_mult: 1
  }
  param {
    lr_mult: 2
    decay_mult: 0
  }
  convolution_param {
    num_output: 32
    pad: 2
    kernel_size: 5
    weight_filler {
      type: "xavier"
      std: 0.03
    }
    bias_filler {
      type: "constant"
      value: 0.2
    }
  }
}
layer {
  name: "inception_3a/relu_5x5"
  type: "ReLU"
  bottom: "inception_3a/5x5"
  top: "inception_3a/5x5"
}
layer {
  name: "inception_3a/pool"
  type: "Pooling"
  bottom: "pool2/3x3_s2"
  top: "inception_3a/pool"
  pooling_param {
    pool: MAX
    kernel_size: 3
    stride: 1
    pad: 1
  }
}
layer {
  name: "inception_3a/pool_proj"
  type: "Convolution"
  bottom: "inception_3a/pool"
  top: "inception_3a/pool_proj"
  param {
    lr_mult: 1
    decay_mult: 1
  }
  param {
    lr_mult: 2
    decay_mult: 0
  }
  convolution_param {
    num_output: 32
    kernel_size: 1
    weight_filler {
      type: "xavier"
      std: 0.1
    }
    bias_filler {
      type: "constant"
      value: 0.2
    }
  }
}
layer {
  name: "inception_3a/relu_pool_proj"
  type: "ReLU"
  bottom: "inception_3a/pool_proj"
  top: "inception_3a/pool_proj"
}
layer {
  name: "inception_3a/output"
  type: "Concat"
  bottom: "inception_3a/1x1"
  bottom: "inception_3a/3x3"
  bottom: "inception_3a/5x5"
  bottom: "inception_3a/pool_proj"
  top: "inception_3a/output"
}
layer {
  name: "inception_3b/1x1"
  type: "Convolution"
  bottom: "inception_3a/output"
  top: "inception_3b/1x1"
  param {
    lr_mult: 1
    decay_mult: 1
  }
  param {
    lr_mult: 2
    decay_mult: 0
  }
  convolution_param {
    num_output: 128
    kernel_size: 1
    weight_filler {
      type: "xavier"
      std: 0.03
    }
    bias_filler {
      type: "constant"
      value: 0.2
    }
  }
}
layer {
  name: "inception_3b/relu_1x1"
  type: "ReLU"
  bottom: "inception_3b/1x1"
  top: "inception_3b/1x1"
}
layer {
  name: "inception_3b/3x3_reduce"
  type: "Convolution"
  bottom: "inception_3a/output"
  top: "inception_3b/3x3_reduce"
  param {
    lr_mult: 1
    decay_mult: 1
  }
  param {
    lr_mult: 2
    decay_mult: 0
  }
  convolution_param {
    num_output: 128
    kernel_size: 1
    weight_filler {
      type: "xavier"
      std: 0.09
    }
    bias_filler {
      type: "constant"
      value: 0.2
    }
  }
}
layer {
  name: "inception_3b/relu_3x3_reduce"
  type: "ReLU"
  bottom: "inception_3b/3x3_reduce"
  top: "inception_3b/3x3_reduce"
}
layer {
  name: "inception_3b/3x3"
  type: "Convolution"
  bottom: "inception_3b/3x3_reduce"
  top: "inception_3b/3x3"
  param {
    lr_mult: 1
    decay_mult: 1
  }
  param {
    lr_mult: 2
    decay_mult: 0
  }
  convolution_param {
    num_output: 192
    pad: 1
    kernel_size: 3
    weight_filler {
      type: "xavier"
      std: 0.03
    }
    bias_filler {
      type: "constant"
      value: 0.2
    }
  }
}
layer {
  name: "inception_3b/relu_3x3"
  type: "ReLU"
  bottom: "inception_3b/3x3"
  top: "inception_3b/3x3"
}
layer {
  name: "inception_3b/5x5_reduce"
  type: "Convolution"
  bottom: "inception_3a/output"
  top: "inception_3b/5x5_reduce"
  param {
    lr_mult: 1
    decay_mult: 1
  }
  param {
    lr_mult: 2
    decay_mult: 0
  }
  convolution_param {
    num_output: 32
    kernel_size: 1
    weight_filler {
      type: "xavier"
      std: 0.2
    }
    bias_filler {
      type: "constant"
      value: 0.2
    }
  }
}
layer {
  name: "inception_3b/relu_5x5_reduce"
  type: "ReLU"
  bottom: "inception_3b/5x5_reduce"
  top: "inception_3b/5x5_reduce"
}
layer {
  name: "inception_3b/5x5"
  type: "Convolution"
  bottom: "inception_3b/5x5_reduce"
  top: "inception_3b/5x5"
  param {
    lr_mult: 1
    decay_mult: 1
  }
  param {
    lr_mult: 2
    decay_mult: 0
  }
  convolution_param {
    num_output: 96
    pad: 2
    kernel_size: 5
    weight_filler {
      type: "xavier"
      std: 0.03
    }
    bias_filler {
      type: "constant"
      value: 0.2
    }
  }
}
layer {
  name: "inception_3b/relu_5x5"
  type: "ReLU"
  bottom: "inception_3b/5x5"
  top: "inception_3b/5x5"
}
layer {
  name: "inception_3b/pool"
  type: "Pooling"
  bottom: "inception_3a/output"
  top: "inception_3b/pool"
  pooling_param {
    pool: MAX
    kernel_size: 3
    stride: 1
    pad: 1
  }
}
layer {
  name: "inception_3b/pool_proj"
  type: "Convolution"
  bottom: "inception_3b/pool"
  top: "inception_3b/pool_proj"
  param {
    lr_mult: 1
    decay_mult: 1
  }
  param {
    lr_mult: 2
    decay_mult: 0
  }
  convolution_param {
    num_output: 64
    kernel_size: 1
    weight_filler {
      type: "xavier"
      std: 0.1
    }
    bias_filler {
      type: "constant"
      value: 0.2
    }
  }
}
layer {
  name: "inception_3b/relu_pool_proj"
  type: "ReLU"
  bottom: "inception_3b/pool_proj"
  top: "inception_3b/pool_proj"
}
layer {
  name: "inception_3b/output"
  type: "Concat"
  bottom: "inception_3b/1x1"
  bottom: "inception_3b/3x3"
  bottom: "inception_3b/5x5"
  bottom: "inception_3b/pool_proj"
  top: "inception_3b/output"
}
layer {
  name: "pool3/3x3_s2"
  type: "Pooling"
  bottom: "inception_3b/output"
  top: "pool3/3x3_s2"
  pooling_param {
    pool: MAX
    kernel_size: 3
    stride: 2
  }
}
layer {
  name: "inception_4a/1x1"
  type: "Convolution"
  bottom: "pool3/3x3_s2"
  top: "inception_4a/1x1"
  param {
    lr_mult: 1
    decay_mult: 1
  }
  param {
    lr_mult: 2
    decay_mult: 0
  }
  convolution_param {
    num_output: 192
    kernel_size: 1
    weight_filler {
      type: "xavier"
      std: 0.03
    }
    bias_filler {
      type: "constant"
      value: 0.2
    }
  }
}
layer {
  name: "inception_4a/relu_1x1"
  type: "ReLU"
  bottom: "inception_4a/1x1"
  top: "inception_4a/1x1"
}
layer {
  name: "inception_4a/3x3_reduce"
  type: "Convolution"
  bottom: "pool3/3x3_s2"
  top: "inception_4a/3x3_reduce"
  param {
    lr_mult: 1
    decay_mult: 1
  }
  param {
    lr_mult: 2
    decay_mult: 0
  }
  convolution_param {
    num_output: 96
    kernel_size: 1
    weight_filler {
      type: "xavier"
      std: 0.09
    }
    bias_filler {
      type: "constant"
      value: 0.2
    }
  }
}
layer {
  name: "inception_4a/relu_3x3_reduce"
  type: "ReLU"
  bottom: "inception_4a/3x3_reduce"
  top: "inception_4a/3x3_reduce"
}
layer {
  name: "inception_4a/3x3"
  type: "Convolution"
  bottom: "inception_4a/3x3_reduce"
  top: "inception_4a/3x3"
  param {
    lr_mult: 1
    decay_mult: 1
  }
  param {
    lr_mult: 2
    decay_mult: 0
  }
  convolution_param {
    num_output: 208
    pad: 1
    kernel_size: 3
    weight_filler {
      type: "xavier"
      std: 0.03
    }
    bias_filler {
      type: "constant"
      value: 0.2
    }
  }
}
layer {
  name: "inception_4a/relu_3x3"
  type: "ReLU"
  bottom: "inception_4a/3x3"
  top: "inception_4a/3x3"
}
layer {
  name: "inception_4a/5x5_reduce"
  type: "Convolution"
  bottom: "pool3/3x3_s2"
  top: "inception_4a/5x5_reduce"
  param {
    lr_mult: 1
    decay_mult: 1
  }
  param {
    lr_mult: 2
    decay_mult: 0
  }
  convolution_param {
    num_output: 16
    kernel_size: 1
    weight_filler {
      type: "xavier"
      std: 0.2
    }
    bias_filler {
      type: "constant"
      value: 0.2
    }
  }
}
layer {
  name: "inception_4a/relu_5x5_reduce"
  type: "ReLU"
  bottom: "inception_4a/5x5_reduce"
  top: "inception_4a/5x5_reduce"
}
layer {
  name: "inception_4a/5x5"
  type: "Convolution"
  bottom: "inception_4a/5x5_reduce"
  top: "inception_4a/5x5"
  param {
    lr_mult: 1
    decay_mult: 1
  }
  param {
    lr_mult: 2
    decay_mult: 0
  }
  convolution_param {
    num_output: 48
    pad: 2
    kernel_size: 5
    weight_filler {
      type: "xavier"
      std: 0.03
    }
    bias_filler {
      type: "constant"
      value: 0.2
    }
  }
}
layer {
  name: "inception_4a/relu_5x5"
  type: "ReLU"
  bottom: "inception_4a/5x5"
  top: "inception_4a/5x5"
}
layer {
  name: "inception_4a/pool"
  type: "Pooling"
  bottom: "pool3/3x3_s2"
  top: "inception_4a/pool"
  pooling_param {
    pool: MAX
    kernel_size: 3
    stride: 1
    pad: 1
  }
}
layer {
  name: "inception_4a/pool_proj"
  type: "Convolution"
  bottom: "inception_4a/pool"
  top: "inception_4a/pool_proj"
  param {
    lr_mult: 1
    decay_mult: 1
  }
  param {
    lr_mult: 2
    decay_mult: 0
  }
  convolution_param {
    num_output: 64
    kernel_size: 1
    weight_filler {
      type: "xavier"
      std: 0.1
    }
    bias_filler {
      type: "constant"
      value: 0.2
    }
  }
}
layer {
  name: "inception_4a/relu_pool_proj"
  type: "ReLU"
  bottom: "inception_4a/pool_proj"
  top: "inception_4a/pool_proj"
}
layer {
  name: "inception_4a/output"
  type: "Concat"
  bottom: "inception_4a/1x1"
  bottom: "inception_4a/3x3"
  bottom: "inception_4a/5x5"
  bottom: "inception_4a/pool_proj"
  top: "inception_4a/output"
}
layer {
  name: "inception_4b/1x1"
  type: "Convolution"
  bottom: "inception_4a/output"
  top: "inception_4b/1x1"
  param {
    lr_mult: 1
    decay_mult: 1
  }
  param {
    lr_mult: 2
    decay_mult: 0
  }
  convolution_param {
    num_output: 160
    kernel_size: 1
    weight_filler {
      type: "xavier"
      std: 0.03
    }
    bias_filler {
      type: "constant"
      value: 0.2
    }
  }
}
layer {
  name: "inception_4b/relu_1x1"
  type: "ReLU"
  bottom: "inception_4b/1x1"
  top: "inception_4b/1x1"
}
layer {
  name: "inception_4b/3x3_reduce"
  type: "Convolution"
  bottom: "inception_4a/output"
  top: "inception_4b/3x3_reduce"
  param {
    lr_mult: 1
    decay_mult: 1
  }
  param {
    lr_mult: 2
    decay_mult: 0
  }
  convolution_param {
    num_output: 112
    kernel_size: 1
    weight_filler {
      type: "xavier"
      std: 0.09
    }
    bias_filler {
      type: "constant"
      value: 0.2
    }
  }
}
layer {
  name: "inception_4b/relu_3x3_reduce"
  type: "ReLU"
  bottom: "inception_4b/3x3_reduce"
  top: "inception_4b/3x3_reduce"
}
layer {
  name: "inception_4b/3x3"
  type: "Convolution"
  bottom: "inception_4b/3x3_reduce"
  top: "inception_4b/3x3"
  param {
    lr_mult: 1
    decay_mult: 1
  }
  param {
    lr_mult: 2
    decay_mult: 0
  }
  convolution_param {
    num_output: 224
    pad: 1
    kernel_size: 3
    weight_filler {
      type: "xavier"
      std: 0.03
    }
    bias_filler {
      type: "constant"
      value: 0.2
    }
  }
}
layer {
  name: "inception_4b/relu_3x3"
  type: "ReLU"
  bottom: "inception_4b/3x3"
  top: "inception_4b/3x3"
}
layer {
  name: "inception_4b/5x5_reduce"
  type: "Convolution"
  bottom: "inception_4a/output"
  top: "inception_4b/5x5_reduce"
  param {
    lr_mult: 1
    decay_mult: 1
  }
  param {
    lr_mult: 2
    decay_mult: 0
  }
  convolution_param {
    num_output: 24
    kernel_size: 1
    weight_filler {
      type: "xavier"
      std: 0.2
    }
    bias_filler {
      type: "constant"
      value: 0.2
    }
  }
}
layer {
  name: "inception_4b/relu_5x5_reduce"
  type: "ReLU"
  bottom: "inception_4b/5x5_reduce"
  top: "inception_4b/5x5_reduce"
}
layer {
  name: "inception_4b/5x5"
  type: "Convolution"
  bottom: "inception_4b/5x5_reduce"
  top: "inception_4b/5x5"
  param {
    lr_mult: 1
    decay_mult: 1
  }
  param {
    lr_mult: 2
    decay_mult: 0
  }
  convolution_param {
    num_output: 64
    pad: 2
    kernel_size: 5
    weight_filler {
      type: "xavier"
      std: 0.03
    }
    bias_filler {
      type: "constant"
      value: 0.2
    }
  }
}
layer {
  name: "inception_4b/relu_5x5"
  type: "ReLU"
  bottom: "inception_4b/5x5"
  top: "inception_4b/5x5"
}
layer {
  name: "inception_4b/pool"
  type: "Pooling"
  bottom: "inception_4a/output"
  top: "inception_4b/pool"
  pooling_param {
    pool: MAX
    kernel_size: 3
    stride: 1
    pad: 1
  }
}
layer {
  name: "inception_4b/pool_proj"
  type: "Convolution"
  bottom: "inception_4b/pool"
  top: "inception_4b/pool_proj"
  param {
    lr_mult: 1
    decay_mult: 1
  }
  param {
    lr_mult: 2
    decay_mult: 0
  }
  convolution_param {
    num_output: 64
    kernel_size: 1
    weight_filler {
      type: "xavier"
      std: 0.1
    }
    bias_filler {
      type: "constant"
      value: 0.2
    }
  }
}
layer {
  name: "inception_4b/relu_pool_proj"
  type: "ReLU"
  bottom: "inception_4b/pool_proj"
  top: "inception_4b/pool_proj"
}
layer {
  name: "inception_4b/output"
  type: "Concat"
  bottom: "inception_4b/1x1"
  bottom: "inception_4b/3x3"
  bottom: "inception_4b/5x5"
  bottom: "inception_4b/pool_proj"
  top: "inception_4b/output"
}
layer {
  name: "inception_4c/1x1"
  type: "Convolution"
  bottom: "inception_4b/output"
  top: "inception_4c/1x1"
  param {
    lr_mult: 1
    decay_mult: 1
  }
  param {
    lr_mult: 2
    decay_mult: 0
  }
  convolution_param {
    num_output: 128
    kernel_size: 1
    weight_filler {
      type: "xavier"
      std: 0.03
    }
    bias_filler {
      type: "constant"
      value: 0.2
    }
  }
}
layer {
  name: "inception_4c/relu_1x1"
  type: "ReLU"
  bottom: "inception_4c/1x1"
  top: "inception_4c/1x1"
}
layer {
  name: "inception_4c/3x3_reduce"
  type: "Convolution"
  bottom: "inception_4b/output"
  top: "inception_4c/3x3_reduce"
  param {
    lr_mult: 1
    decay_mult: 1
  }
  param {
    lr_mult: 2
    decay_mult: 0
  }
  convolution_param {
    num_output: 128
    kernel_size: 1
    weight_filler {
      type: "xavier"
      std: 0.09
    }
    bias_filler {
      type: "constant"
      value: 0.2
    }
  }
}
layer {
  name: "inception_4c/relu_3x3_reduce"
  type: "ReLU"
  bottom: "inception_4c/3x3_reduce"
  top: "inception_4c/3x3_reduce"
}
layer {
  name: "inception_4c/3x3"
  type: "Convolution"
  bottom: "inception_4c/3x3_reduce"
  top: "inception_4c/3x3"
  param {
    lr_mult: 1
    decay_mult: 1
  }
  param {
    lr_mult: 2
    decay_mult: 0
  }
  convolution_param {
    num_output: 256
    pad: 1
    kernel_size: 3
    weight_filler {
      type: "xavier"
      std: 0.03
    }
    bias_filler {
      type: "constant"
      value: 0.2
    }
  }
}
layer {
  name: "inception_4c/relu_3x3"
  type: "ReLU"
  bottom: "inception_4c/3x3"
  top: "inception_4c/3x3"
}
layer {
  name: "inception_4c/5x5_reduce"
  type: "Convolution"
  bottom: "inception_4b/output"
  top: "inception_4c/5x5_reduce"
  param {
    lr_mult: 1
    decay_mult: 1
  }
  param {
    lr_mult: 2
    decay_mult: 0
  }
  convolution_param {
    num_output: 24
    kernel_size: 1
    weight_filler {
      type: "xavier"
      std: 0.2
    }
    bias_filler {
      type: "constant"
      value: 0.2
    }
  }
}
layer {
  name: "inception_4c/relu_5x5_reduce"
  type: "ReLU"
  bottom: "inception_4c/5x5_reduce"
  top: "inception_4c/5x5_reduce"
}
layer {
  name: "inception_4c/5x5"
  type: "Convolution"
  bottom: "inception_4c/5x5_reduce"
  top: "inception_4c/5x5"
  param {
    lr_mult: 1
    decay_mult: 1
  }
  param {
    lr_mult: 2
    decay_mult: 0
  }
  convolution_param {
    num_output: 64
    pad: 2
    kernel_size: 5
    weight_filler {
      type: "xavier"
      std: 0.03
    }
    bias_filler {
      type: "constant"
      value: 0.2
    }
  }
}
layer {
  name: "inception_4c/relu_5x5"
  type: "ReLU"
  bottom: "inception_4c/5x5"
  top: "inception_4c/5x5"
}
layer {
  name: "inception_4c/pool"
  type: "Pooling"
  bottom: "inception_4b/output"
  top: "inception_4c/pool"
  pooling_param {
    pool: MAX
    kernel_size: 3
    stride: 1
    pad: 1
  }
}
layer {
  name: "inception_4c/pool_proj"
  type: "Convolution"
  bottom: "inception_4c/pool"
  top: "inception_4c/pool_proj"
  param {
    lr_mult: 1
    decay_mult: 1
  }
  param {
    lr_mult: 2
    decay_mult: 0
  }
  convolution_param {
    num_output: 64
    kernel_size: 1
    weight_filler {
      type: "xavier"
      std: 0.1
    }
    bias_filler {
      type: "constant"
      value: 0.2
    }
  }
}
layer {
  name: "inception_4c/relu_pool_proj"
  type: "ReLU"
  bottom: "inception_4c/pool_proj"
  top: "inception_4c/pool_proj"
}
layer {
  name: "inception_4c/output"
  type: "Concat"
  bottom: "inception_4c/1x1"
  bottom: "inception_4c/3x3"
  bottom: "inception_4c/5x5"
  bottom: "inception_4c/pool_proj"
  top: "inception_4c/output"
}
layer {
  name: "inception_4d/1x1"
  type: "Convolution"
  bottom: "inception_4c/output"
  top: "inception_4d/1x1"
  param {
    lr_mult: 1
    decay_mult: 1
  }
  param {
    lr_mult: 2
    decay_mult: 0
  }
  convolution_param {
    num_output: 112
    kernel_size: 1
    weight_filler {
      type: "xavier"
      std: 0.03
    }
    bias_filler {
      type: "constant"
      value: 0.2
    }
  }
}
layer {
  name: "inception_4d/relu_1x1"
  type: "ReLU"
  bottom: "inception_4d/1x1"
  top: "inception_4d/1x1"
}
layer {
  name: "inception_4d/3x3_reduce"
  type: "Convolution"
  bottom: "inception_4c/output"
  top: "inception_4d/3x3_reduce"
  param {
    lr_mult: 1
    decay_mult: 1
  }
  param {
    lr_mult: 2
    decay_mult: 0
  }
  convolution_param {
    num_output: 144
    kernel_size: 1
    weight_filler {
      type: "xavier"
      std: 0.09
    }
    bias_filler {
      type: "constant"
      value: 0.2
    }
  }
}
layer {
  name: "inception_4d/relu_3x3_reduce"
  type: "ReLU"
  bottom: "inception_4d/3x3_reduce"
  top: "inception_4d/3x3_reduce"
}
layer {
  name: "inception_4d/3x3"
  type: "Convolution"
  bottom: "inception_4d/3x3_reduce"
  top: "inception_4d/3x3"
  param {
    lr_mult: 1
    decay_mult: 1
  }
  param {
    lr_mult: 2
    decay_mult: 0
  }
  convolution_param {
    num_output: 288
    pad: 1
    kernel_size: 3
    weight_filler {
      type: "xavier"
      std: 0.03
    }
    bias_filler {
      type: "constant"
      value: 0.2
    }
  }
}
layer {
  name: "inception_4d/relu_3x3"
  type: "ReLU"
  bottom: "inception_4d/3x3"
  top: "inception_4d/3x3"
}
layer {
  name: "inception_4d/5x5_reduce"
  type: "Convolution"
  bottom: "inception_4c/output"
  top: "inception_4d/5x5_reduce"
  param {
    lr_mult: 1
    decay_mult: 1
  }
  param {
    lr_mult: 2
    decay_mult: 0
  }
  convolution_param {
    num_output: 32
    kernel_size: 1
    weight_filler {
      type: "xavier"
      std: 0.2
    }
    bias_filler {
      type: "constant"
      value: 0.2
    }
  }
}
layer {
  name: "inception_4d/relu_5x5_reduce"
  type: "ReLU"
  bottom: "inception_4d/5x5_reduce"
  top: "inception_4d/5x5_reduce"
}
layer {
  name: "inception_4d/5x5"
  type: "Convolution"
  bottom: "inception_4d/5x5_reduce"
  top: "inception_4d/5x5"
  param {
    lr_mult: 1
    decay_mult: 1
  }
  param {
    lr_mult: 2
    decay_mult: 0
  }
  convolution_param {
    num_output: 64
    pad: 2
    kernel_size: 5
    weight_filler {
      type: "xavier"
      std: 0.03
    }
    bias_filler {
      type: "constant"
      value: 0.2
    }
  }
}
layer {
  name: "inception_4d/relu_5x5"
  type: "ReLU"
  bottom: "inception_4d/5x5"
  top: "inception_4d/5x5"
}
layer {
  name: "inception_4d/pool"
  type: "Pooling"
  bottom: "inception_4c/output"
  top: "inception_4d/pool"
  pooling_param {
    pool: MAX
    kernel_size: 3
    stride: 1
    pad: 1
  }
}
layer {
  name: "inception_4d/pool_proj"
  type: "Convolution"
  bottom: "inception_4d/pool"
  top: "inception_4d/pool_proj"
  param {
    lr_mult: 1
    decay_mult: 1
  }
  param {
    lr_mult: 2
    decay_mult: 0
  }
  convolution_param {
    num_output: 64
    kernel_size: 1
    weight_filler {
      type: "xavier"
      std: 0.1
    }
    bias_filler {
      type: "constant"
      value: 0.2
    }
  }
}
layer {
  name: "inception_4d/relu_pool_proj"
  type: "ReLU"
  bottom: "inception_4d/pool_proj"
  top: "inception_4d/pool_proj"
}
layer {
  name: "inception_4d/output"
  type: "Concat"
  bottom: "inception_4d/1x1"
  bottom: "inception_4d/3x3"
  bottom: "inception_4d/5x5"
  bottom: "inception_4d/pool_proj"
  top: "inception_4d/output"
}
layer {
  name: "inception_4e/1x1"
  type: "Convolution"
  bottom: "inception_4d/output"
  top: "inception_4e/1x1"
  param {
    lr_mult: 1
    decay_mult: 1
  }
  param {
    lr_mult: 2
    decay_mult: 0
  }
  convolution_param {
    num_output: 256
    kernel_size: 1
    weight_filler {
      type: "xavier"
      std: 0.03
    }
    bias_filler {
      type: "constant"
      value: 0.2
    }
  }
}
layer {
  name: "inception_4e/relu_1x1"
  type: "ReLU"
  bottom: "inception_4e/1x1"
  top: "inception_4e/1x1"
}
layer {
  name: "inception_4e/3x3_reduce"
  type: "Convolution"
  bottom: "inception_4d/output"
  top: "inception_4e/3x3_reduce"
  param {
    lr_mult: 1
    decay_mult: 1
  }
  param {
    lr_mult: 2
    decay_mult: 0
  }
  convolution_param {
    num_output: 160
    kernel_size: 1
    weight_filler {
      type: "xavier"
      std: 0.09
    }
    bias_filler {
      type: "constant"
      value: 0.2
    }
  }
}
layer {
  name: "inception_4e/relu_3x3_reduce"
  type: "ReLU"
  bottom: "inception_4e/3x3_reduce"
  top: "inception_4e/3x3_reduce"
}
layer {
  name: "inception_4e/3x3"
  type: "Convolution"
  bottom: "inception_4e/3x3_reduce"
  top: "inception_4e/3x3"
  param {
    lr_mult: 1
    decay_mult: 1
  }
  param {
    lr_mult: 2
    decay_mult: 0
  }
  convolution_param {
    num_output: 320
    pad: 1
    kernel_size: 3
    weight_filler {
      type: "xavier"
      std: 0.03
    }
    bias_filler {
      type: "constant"
      value: 0.2
    }
  }
}
layer {
  name: "inception_4e/relu_3x3"
  type: "ReLU"
  bottom: "inception_4e/3x3"
  top: "inception_4e/3x3"
}
layer {
  name: "inception_4e/5x5_reduce"
  type: "Convolution"
  bottom: "inception_4d/output"
  top: "inception_4e/5x5_reduce"
  param {
    lr_mult: 1
    decay_mult: 1
  }
  param {
    lr_mult: 2
    decay_mult: 0
  }
  convolution_param {
    num_output: 32
    kernel_size: 1
    weight_filler {
      type: "xavier"
      std: 0.2
    }
    bias_filler {
      type: "constant"
      value: 0.2
    }
  }
}
layer {
  name: "inception_4e/relu_5x5_reduce"
  type: "ReLU"
  bottom: "inception_4e/5x5_reduce"
  top: "inception_4e/5x5_reduce"
}
layer {
  name: "inception_4e/5x5"
  type: "Convolution"
  bottom: "inception_4e/5x5_reduce"
  top: "inception_4e/5x5"
  param {
    lr_mult: 1
    decay_mult: 1
  }
  param {
    lr_mult: 2
    decay_mult: 0
  }
  convolution_param {
    num_output: 128
    pad: 2
    kernel_size: 5
    weight_filler {
      type: "xavier"
      std: 0.03
    }
    bias_filler {
      type: "constant"
      value: 0.2
    }
  }
}
layer {
  name: "inception_4e/relu_5x5"
  type: "ReLU"
  bottom: "inception_4e/5x5"
  top: "inception_4e/5x5"
}
layer {
  name: "inception_4e/pool"
  type: "Pooling"
  bottom: "inception_4d/output"
  top: "inception_4e/pool"
  pooling_param {
    pool: MAX
    kernel_size: 3
    stride: 1
    pad: 1
  }
}
layer {
  name: "inception_4e/pool_proj"
  type: "Convolution"
  bottom: "inception_4e/pool"
  top: "inception_4e/pool_proj"
  param {
    lr_mult: 1
    decay_mult: 1
  }
  param {
    lr_mult: 2
    decay_mult: 0
  }
  convolution_param {
    num_output: 128
    kernel_size: 1
    weight_filler {
      type: "xavier"
      std: 0.1
    }
    bias_filler {
      type: "constant"
      value: 0.2
    }
  }
}
layer {
  name: "inception_4e/relu_pool_proj"
  type: "ReLU"
  bottom: "inception_4e/pool_proj"
  top: "inception_4e/pool_proj"
}
layer {
  name: "inception_4e/output"
  type: "Concat"
  bottom: "inception_4e/1x1"
  bottom: "inception_4e/3x3"
  bottom: "inception_4e/5x5"
  bottom: "inception_4e/pool_proj"
  top: "inception_4e/output"
}
layer {
  name: "CAM_conv"
  type: "Convolution"
  bottom: "inception_4e/output"
  top: "CAM_conv"
  param {
    lr_mult: 1
    decay_mult: 1
  }
  param {
    lr_mult: 2
    decay_mult: 0
  }
  convolution_param {
    num_output: 1024
    pad: 1
    kernel_size: 3
    group: 2
    weight_filler {
      type: "gaussian"
      std: 0.01
    }
    bias_filler {
      type: "constant"
      value: 1
    }
  }
}
layer {
  name: "CAM_relu"
  type: "ReLU"
  bottom: "CAM_conv"
  top: "CAM_conv"
}
layer {
  name: "CAM_pool"
  type: "Pooling"
  bottom: "CAM_conv"
  top: "CAM_pool"
  pooling_param {
    pool: AVE
    kernel_size: 14
    stride: 14
  }
}
layer {
  name: "CAM_fc"
  type: "InnerProduct"
  bottom: "CAM_pool"
  top: "CAM_fc"
  param {
    lr_mult: 1
    decay_mult: 1
  }
  param {
    lr_mult: 2
    decay_mult: 0
  }
  inner_product_param {
    num_output: 1000
    weight_filler {
      type: "xavier"
    }
    bias_filler {
      type: "constant"
      value: 0
    }
  }
}
layer {
  name: "prob"
  type: "Softmax"
  bottom: "CAM_fc"
  top: "prob"
}
I1113 14:16:53.380008  7572 layer_factory.hpp:77] Creating layer input
I1113 14:16:53.380508  7572 net.cpp:91] Creating Layer input
I1113 14:16:53.380508  7572 net.cpp:399] input -> data
I1113 14:16:53.381510  7572 net.cpp:141] Setting up input
I1113 14:16:53.381510  7572 net.cpp:148] Top shape: 1 3 224 224 (150528)
I1113 14:16:53.381510  7572 net.cpp:156] Memory required for data: 602112
I1113 14:16:53.381510  7572 layer_factory.hpp:77] Creating layer conv1/7x7_s2
I1113 14:16:53.382009  7572 net.cpp:91] Creating Layer conv1/7x7_s2
I1113 14:16:53.382009  7572 net.cpp:425] conv1/7x7_s2 <- data
I1113 14:16:53.382009  7572 net.cpp:399] conv1/7x7_s2 -> conv1/7x7_s2
I1113 14:16:53.382509  7572 net.cpp:141] Setting up conv1/7x7_s2
I1113 14:16:53.382509  7572 net.cpp:148] Top shape: 1 64 112 112 (802816)
I1113 14:16:53.382509  7572 net.cpp:156] Memory required for data: 3813376
I1113 14:16:53.382509  7572 layer_factory.hpp:77] Creating layer conv1/relu_7x7
I1113 14:16:53.382509  7572 net.cpp:91] Creating Layer conv1/relu_7x7
I1113 14:16:53.382509  7572 net.cpp:425] conv1/relu_7x7 <- conv1/7x7_s2
I1113 14:16:53.382509  7572 net.cpp:386] conv1/relu_7x7 -> conv1/7x7_s2 (in-place)
I1113 14:16:53.383510  7572 net.cpp:141] Setting up conv1/relu_7x7
I1113 14:16:53.383510  7572 net.cpp:148] Top shape: 1 64 112 112 (802816)
I1113 14:16:53.383510  7572 net.cpp:156] Memory required for data: 7024640
I1113 14:16:53.383510  7572 layer_factory.hpp:77] Creating layer pool1/3x3_s2
I1113 14:16:53.383510  7572 net.cpp:91] Creating Layer pool1/3x3_s2
I1113 14:16:53.383510  7572 net.cpp:425] pool1/3x3_s2 <- conv1/7x7_s2
I1113 14:16:53.383510  7572 net.cpp:399] pool1/3x3_s2 -> pool1/3x3_s2
I1113 14:16:53.383510  7572 net.cpp:141] Setting up pool1/3x3_s2
I1113 14:16:53.383510  7572 net.cpp:148] Top shape: 1 64 56 56 (200704)
I1113 14:16:53.383510  7572 net.cpp:156] Memory required for data: 7827456
I1113 14:16:53.383510  7572 layer_factory.hpp:77] Creating layer pool1/norm1
I1113 14:16:53.383510  7572 net.cpp:91] Creating Layer pool1/norm1
I1113 14:16:53.383510  7572 net.cpp:425] pool1/norm1 <- pool1/3x3_s2
I1113 14:16:53.383510  7572 net.cpp:399] pool1/norm1 -> pool1/norm1
I1113 14:16:53.383510  7572 net.cpp:141] Setting up pool1/norm1
I1113 14:16:53.383510  7572 net.cpp:148] Top shape: 1 64 56 56 (200704)
I1113 14:16:53.383510  7572 net.cpp:156] Memory required for data: 8630272
I1113 14:16:53.383510  7572 layer_factory.hpp:77] Creating layer conv2/3x3_reduce
I1113 14:16:53.383510  7572 net.cpp:91] Creating Layer conv2/3x3_reduce
I1113 14:16:53.383510  7572 net.cpp:425] conv2/3x3_reduce <- pool1/norm1
I1113 14:16:53.383510  7572 net.cpp:399] conv2/3x3_reduce -> conv2/3x3_reduce
I1113 14:16:53.384011  7572 net.cpp:141] Setting up conv2/3x3_reduce
I1113 14:16:53.384011  7572 net.cpp:148] Top shape: 1 64 56 56 (200704)
I1113 14:16:53.384011  7572 net.cpp:156] Memory required for data: 9433088
I1113 14:16:53.384011  7572 layer_factory.hpp:77] Creating layer conv2/relu_3x3_reduce
I1113 14:16:53.384011  7572 net.cpp:91] Creating Layer conv2/relu_3x3_reduce
I1113 14:16:53.384011  7572 net.cpp:425] conv2/relu_3x3_reduce <- conv2/3x3_reduce
I1113 14:16:53.384011  7572 net.cpp:386] conv2/relu_3x3_reduce -> conv2/3x3_reduce (in-place)
I1113 14:16:53.384011  7572 net.cpp:141] Setting up conv2/relu_3x3_reduce
I1113 14:16:53.384011  7572 net.cpp:148] Top shape: 1 64 56 56 (200704)
I1113 14:16:53.384011  7572 net.cpp:156] Memory required for data: 10235904
I1113 14:16:53.384011  7572 layer_factory.hpp:77] Creating layer conv2/3x3
I1113 14:16:53.384011  7572 net.cpp:91] Creating Layer conv2/3x3
I1113 14:16:53.384011  7572 net.cpp:425] conv2/3x3 <- conv2/3x3_reduce
I1113 14:16:53.384011  7572 net.cpp:399] conv2/3x3 -> conv2/3x3
I1113 14:16:53.386013  7572 net.cpp:141] Setting up conv2/3x3
I1113 14:16:53.386013  7572 net.cpp:148] Top shape: 1 192 56 56 (602112)
I1113 14:16:53.386013  7572 net.cpp:156] Memory required for data: 12644352
I1113 14:16:53.386013  7572 layer_factory.hpp:77] Creating layer conv2/relu_3x3
I1113 14:16:53.386013  7572 net.cpp:91] Creating Layer conv2/relu_3x3
I1113 14:16:53.386013  7572 net.cpp:425] conv2/relu_3x3 <- conv2/3x3
I1113 14:16:53.386013  7572 net.cpp:386] conv2/relu_3x3 -> conv2/3x3 (in-place)
I1113 14:16:53.386013  7572 net.cpp:141] Setting up conv2/relu_3x3
I1113 14:16:53.386512  7572 net.cpp:148] Top shape: 1 192 56 56 (602112)
I1113 14:16:53.386512  7572 net.cpp:156] Memory required for data: 15052800
I1113 14:16:53.386512  7572 layer_factory.hpp:77] Creating layer conv2/norm2
I1113 14:16:53.386512  7572 net.cpp:91] Creating Layer conv2/norm2
I1113 14:16:53.386512  7572 net.cpp:425] conv2/norm2 <- conv2/3x3
I1113 14:16:53.386512  7572 net.cpp:399] conv2/norm2 -> conv2/norm2
I1113 14:16:53.386512  7572 net.cpp:141] Setting up conv2/norm2
I1113 14:16:53.386512  7572 net.cpp:148] Top shape: 1 192 56 56 (602112)
I1113 14:16:53.386512  7572 net.cpp:156] Memory required for data: 17461248
I1113 14:16:53.386512  7572 layer_factory.hpp:77] Creating layer pool2/3x3_s2
I1113 14:16:53.386512  7572 net.cpp:91] Creating Layer pool2/3x3_s2
I1113 14:16:53.386512  7572 net.cpp:425] pool2/3x3_s2 <- conv2/norm2
I1113 14:16:53.386512  7572 net.cpp:399] pool2/3x3_s2 -> pool2/3x3_s2
I1113 14:16:53.386512  7572 net.cpp:141] Setting up pool2/3x3_s2
I1113 14:16:53.386512  7572 net.cpp:148] Top shape: 1 192 28 28 (150528)
I1113 14:16:53.386512  7572 net.cpp:156] Memory required for data: 18063360
I1113 14:16:53.386512  7572 layer_factory.hpp:77] Creating layer pool2/3x3_s2_pool2/3x3_s2_0_split
I1113 14:16:53.387013  7572 net.cpp:91] Creating Layer pool2/3x3_s2_pool2/3x3_s2_0_split
I1113 14:16:53.387513  7572 net.cpp:425] pool2/3x3_s2_pool2/3x3_s2_0_split <- pool2/3x3_s2
I1113 14:16:53.387513  7572 net.cpp:399] pool2/3x3_s2_pool2/3x3_s2_0_split -> pool2/3x3_s2_pool2/3x3_s2_0_split_0
I1113 14:16:53.387513  7572 net.cpp:399] pool2/3x3_s2_pool2/3x3_s2_0_split -> pool2/3x3_s2_pool2/3x3_s2_0_split_1
I1113 14:16:53.387513  7572 net.cpp:399] pool2/3x3_s2_pool2/3x3_s2_0_split -> pool2/3x3_s2_pool2/3x3_s2_0_split_2
I1113 14:16:53.387513  7572 net.cpp:399] pool2/3x3_s2_pool2/3x3_s2_0_split -> pool2/3x3_s2_pool2/3x3_s2_0_split_3
I1113 14:16:53.387513  7572 net.cpp:141] Setting up pool2/3x3_s2_pool2/3x3_s2_0_split
I1113 14:16:53.387513  7572 net.cpp:148] Top shape: 1 192 28 28 (150528)
I1113 14:16:53.387513  7572 net.cpp:148] Top shape: 1 192 28 28 (150528)
I1113 14:16:53.387513  7572 net.cpp:148] Top shape: 1 192 28 28 (150528)
I1113 14:16:53.387513  7572 net.cpp:148] Top shape: 1 192 28 28 (150528)
I1113 14:16:53.387513  7572 net.cpp:156] Memory required for data: 20471808
I1113 14:16:53.387513  7572 layer_factory.hpp:77] Creating layer inception_3a/1x1
I1113 14:16:53.387513  7572 net.cpp:91] Creating Layer inception_3a/1x1
I1113 14:16:53.387513  7572 net.cpp:425] inception_3a/1x1 <- pool2/3x3_s2_pool2/3x3_s2_0_split_0
I1113 14:16:53.387513  7572 net.cpp:399] inception_3a/1x1 -> inception_3a/1x1
I1113 14:16:53.388013  7572 net.cpp:141] Setting up inception_3a/1x1
I1113 14:16:53.388013  7572 net.cpp:148] Top shape: 1 64 28 28 (50176)
I1113 14:16:53.388013  7572 net.cpp:156] Memory required for data: 20672512
I1113 14:16:53.388013  7572 layer_factory.hpp:77] Creating layer inception_3a/relu_1x1
I1113 14:16:53.388013  7572 net.cpp:91] Creating Layer inception_3a/relu_1x1
I1113 14:16:53.388013  7572 net.cpp:425] inception_3a/relu_1x1 <- inception_3a/1x1
I1113 14:16:53.388013  7572 net.cpp:386] inception_3a/relu_1x1 -> inception_3a/1x1 (in-place)
I1113 14:16:53.388013  7572 net.cpp:141] Setting up inception_3a/relu_1x1
I1113 14:16:53.388013  7572 net.cpp:148] Top shape: 1 64 28 28 (50176)
I1113 14:16:53.388013  7572 net.cpp:156] Memory required for data: 20873216
I1113 14:16:53.388013  7572 layer_factory.hpp:77] Creating layer inception_3a/3x3_reduce
I1113 14:16:53.388013  7572 net.cpp:91] Creating Layer inception_3a/3x3_reduce
I1113 14:16:53.388013  7572 net.cpp:425] inception_3a/3x3_reduce <- pool2/3x3_s2_pool2/3x3_s2_0_split_1
I1113 14:16:53.388013  7572 net.cpp:399] inception_3a/3x3_reduce -> inception_3a/3x3_reduce
I1113 14:16:53.388514  7572 net.cpp:141] Setting up inception_3a/3x3_reduce
I1113 14:16:53.388514  7572 net.cpp:148] Top shape: 1 96 28 28 (75264)
I1113 14:16:53.388514  7572 net.cpp:156] Memory required for data: 21174272
I1113 14:16:53.388514  7572 layer_factory.hpp:77] Creating layer inception_3a/relu_3x3_reduce
I1113 14:16:53.388514  7572 net.cpp:91] Creating Layer inception_3a/relu_3x3_reduce
I1113 14:16:53.388514  7572 net.cpp:425] inception_3a/relu_3x3_reduce <- inception_3a/3x3_reduce
I1113 14:16:53.388514  7572 net.cpp:386] inception_3a/relu_3x3_reduce -> inception_3a/3x3_reduce (in-place)
I1113 14:16:53.388514  7572 net.cpp:141] Setting up inception_3a/relu_3x3_reduce
I1113 14:16:53.388514  7572 net.cpp:148] Top shape: 1 96 28 28 (75264)
I1113 14:16:53.388514  7572 net.cpp:156] Memory required for data: 21475328
I1113 14:16:53.388514  7572 layer_factory.hpp:77] Creating layer inception_3a/3x3
I1113 14:16:53.388514  7572 net.cpp:91] Creating Layer inception_3a/3x3
I1113 14:16:53.388514  7572 net.cpp:425] inception_3a/3x3 <- inception_3a/3x3_reduce
I1113 14:16:53.388514  7572 net.cpp:399] inception_3a/3x3 -> inception_3a/3x3
I1113 14:16:53.391016  7572 net.cpp:141] Setting up inception_3a/3x3
I1113 14:16:53.391016  7572 net.cpp:148] Top shape: 1 128 28 28 (100352)
I1113 14:16:53.391016  7572 net.cpp:156] Memory required for data: 21876736
I1113 14:16:53.391016  7572 layer_factory.hpp:77] Creating layer inception_3a/relu_3x3
I1113 14:16:53.391016  7572 net.cpp:91] Creating Layer inception_3a/relu_3x3
I1113 14:16:53.391016  7572 net.cpp:425] inception_3a/relu_3x3 <- inception_3a/3x3
I1113 14:16:53.391016  7572 net.cpp:386] inception_3a/relu_3x3 -> inception_3a/3x3 (in-place)
I1113 14:16:53.391016  7572 net.cpp:141] Setting up inception_3a/relu_3x3
I1113 14:16:53.391016  7572 net.cpp:148] Top shape: 1 128 28 28 (100352)
I1113 14:16:53.391016  7572 net.cpp:156] Memory required for data: 22278144
I1113 14:16:53.391016  7572 layer_factory.hpp:77] Creating layer inception_3a/5x5_reduce
I1113 14:16:53.391016  7572 net.cpp:91] Creating Layer inception_3a/5x5_reduce
I1113 14:16:53.391016  7572 net.cpp:425] inception_3a/5x5_reduce <- pool2/3x3_s2_pool2/3x3_s2_0_split_2
I1113 14:16:53.391016  7572 net.cpp:399] inception_3a/5x5_reduce -> inception_3a/5x5_reduce
I1113 14:16:53.391016  7572 net.cpp:141] Setting up inception_3a/5x5_reduce
I1113 14:16:53.391016  7572 net.cpp:148] Top shape: 1 16 28 28 (12544)
I1113 14:16:53.391016  7572 net.cpp:156] Memory required for data: 22328320
I1113 14:16:53.391016  7572 layer_factory.hpp:77] Creating layer inception_3a/relu_5x5_reduce
I1113 14:16:53.391016  7572 net.cpp:91] Creating Layer inception_3a/relu_5x5_reduce
I1113 14:16:53.391016  7572 net.cpp:425] inception_3a/relu_5x5_reduce <- inception_3a/5x5_reduce
I1113 14:16:53.391516  7572 net.cpp:386] inception_3a/relu_5x5_reduce -> inception_3a/5x5_reduce (in-place)
I1113 14:16:53.391516  7572 net.cpp:141] Setting up inception_3a/relu_5x5_reduce
I1113 14:16:53.391516  7572 net.cpp:148] Top shape: 1 16 28 28 (12544)
I1113 14:16:53.391516  7572 net.cpp:156] Memory required for data: 22378496
I1113 14:16:53.391516  7572 layer_factory.hpp:77] Creating layer inception_3a/5x5
I1113 14:16:53.391516  7572 net.cpp:91] Creating Layer inception_3a/5x5
I1113 14:16:53.391516  7572 net.cpp:425] inception_3a/5x5 <- inception_3a/5x5_reduce
I1113 14:16:53.391516  7572 net.cpp:399] inception_3a/5x5 -> inception_3a/5x5
I1113 14:16:53.391516  7572 net.cpp:141] Setting up inception_3a/5x5
I1113 14:16:53.391516  7572 net.cpp:148] Top shape: 1 32 28 28 (25088)
I1113 14:16:53.391516  7572 net.cpp:156] Memory required for data: 22478848
I1113 14:16:53.391516  7572 layer_factory.hpp:77] Creating layer inception_3a/relu_5x5
I1113 14:16:53.392016  7572 net.cpp:91] Creating Layer inception_3a/relu_5x5
I1113 14:16:53.392016  7572 net.cpp:425] inception_3a/relu_5x5 <- inception_3a/5x5
I1113 14:16:53.392016  7572 net.cpp:386] inception_3a/relu_5x5 -> inception_3a/5x5 (in-place)
I1113 14:16:53.392016  7572 net.cpp:141] Setting up inception_3a/relu_5x5
I1113 14:16:53.392016  7572 net.cpp:148] Top shape: 1 32 28 28 (25088)
I1113 14:16:53.392016  7572 net.cpp:156] Memory required for data: 22579200
I1113 14:16:53.392016  7572 layer_factory.hpp:77] Creating layer inception_3a/pool
I1113 14:16:53.392016  7572 net.cpp:91] Creating Layer inception_3a/pool
I1113 14:16:53.392016  7572 net.cpp:425] inception_3a/pool <- pool2/3x3_s2_pool2/3x3_s2_0_split_3
I1113 14:16:53.392016  7572 net.cpp:399] inception_3a/pool -> inception_3a/pool
I1113 14:16:53.392016  7572 net.cpp:141] Setting up inception_3a/pool
I1113 14:16:53.392016  7572 net.cpp:148] Top shape: 1 192 28 28 (150528)
I1113 14:16:53.392016  7572 net.cpp:156] Memory required for data: 23181312
I1113 14:16:53.392016  7572 layer_factory.hpp:77] Creating layer inception_3a/pool_proj
I1113 14:16:53.392016  7572 net.cpp:91] Creating Layer inception_3a/pool_proj
I1113 14:16:53.392016  7572 net.cpp:425] inception_3a/pool_proj <- inception_3a/pool
I1113 14:16:53.392016  7572 net.cpp:399] inception_3a/pool_proj -> inception_3a/pool_proj
I1113 14:16:53.392016  7572 net.cpp:141] Setting up inception_3a/pool_proj
I1113 14:16:53.392016  7572 net.cpp:148] Top shape: 1 32 28 28 (25088)
I1113 14:16:53.392016  7572 net.cpp:156] Memory required for data: 23281664
I1113 14:16:53.392016  7572 layer_factory.hpp:77] Creating layer inception_3a/relu_pool_proj
I1113 14:16:53.392016  7572 net.cpp:91] Creating Layer inception_3a/relu_pool_proj
I1113 14:16:53.392016  7572 net.cpp:425] inception_3a/relu_pool_proj <- inception_3a/pool_proj
I1113 14:16:53.392016  7572 net.cpp:386] inception_3a/relu_pool_proj -> inception_3a/pool_proj (in-place)
I1113 14:16:53.392016  7572 net.cpp:141] Setting up inception_3a/relu_pool_proj
I1113 14:16:53.392016  7572 net.cpp:148] Top shape: 1 32 28 28 (25088)
I1113 14:16:53.392016  7572 net.cpp:156] Memory required for data: 23382016
I1113 14:16:53.392016  7572 layer_factory.hpp:77] Creating layer inception_3a/output
I1113 14:16:53.392516  7572 net.cpp:91] Creating Layer inception_3a/output
I1113 14:16:53.392516  7572 net.cpp:425] inception_3a/output <- inception_3a/1x1
I1113 14:16:53.392516  7572 net.cpp:425] inception_3a/output <- inception_3a/3x3
I1113 14:16:53.392516  7572 net.cpp:425] inception_3a/output <- inception_3a/5x5
I1113 14:16:53.392516  7572 net.cpp:425] inception_3a/output <- inception_3a/pool_proj
I1113 14:16:53.392516  7572 net.cpp:399] inception_3a/output -> inception_3a/output
I1113 14:16:53.393018  7572 net.cpp:141] Setting up inception_3a/output
I1113 14:16:53.393018  7572 net.cpp:148] Top shape: 1 256 28 28 (200704)
I1113 14:16:53.393018  7572 net.cpp:156] Memory required for data: 24184832
I1113 14:16:53.393018  7572 layer_factory.hpp:77] Creating layer inception_3a/output_inception_3a/output_0_split
I1113 14:16:53.393018  7572 net.cpp:91] Creating Layer inception_3a/output_inception_3a/output_0_split
I1113 14:16:53.393018  7572 net.cpp:425] inception_3a/output_inception_3a/output_0_split <- inception_3a/output
I1113 14:16:53.393018  7572 net.cpp:399] inception_3a/output_inception_3a/output_0_split -> inception_3a/output_inception_3a/output_0_split_0
I1113 14:16:53.393018  7572 net.cpp:399] inception_3a/output_inception_3a/output_0_split -> inception_3a/output_inception_3a/output_0_split_1
I1113 14:16:53.393517  7572 net.cpp:399] inception_3a/output_inception_3a/output_0_split -> inception_3a/output_inception_3a/output_0_split_2
I1113 14:16:53.393517  7572 net.cpp:399] inception_3a/output_inception_3a/output_0_split -> inception_3a/output_inception_3a/output_0_split_3
I1113 14:16:53.393517  7572 net.cpp:141] Setting up inception_3a/output_inception_3a/output_0_split
I1113 14:16:53.393517  7572 net.cpp:148] Top shape: 1 256 28 28 (200704)
I1113 14:16:53.393517  7572 net.cpp:148] Top shape: 1 256 28 28 (200704)
I1113 14:16:53.393517  7572 net.cpp:148] Top shape: 1 256 28 28 (200704)
I1113 14:16:53.393517  7572 net.cpp:148] Top shape: 1 256 28 28 (200704)
I1113 14:16:53.393517  7572 net.cpp:156] Memory required for data: 27396096
I1113 14:16:53.393517  7572 layer_factory.hpp:77] Creating layer inception_3b/1x1
I1113 14:16:53.393517  7572 net.cpp:91] Creating Layer inception_3b/1x1
I1113 14:16:53.393517  7572 net.cpp:425] inception_3b/1x1 <- inception_3a/output_inception_3a/output_0_split_0
I1113 14:16:53.393517  7572 net.cpp:399] inception_3b/1x1 -> inception_3b/1x1
I1113 14:16:53.394017  7572 net.cpp:141] Setting up inception_3b/1x1
I1113 14:16:53.394017  7572 net.cpp:148] Top shape: 1 128 28 28 (100352)
I1113 14:16:53.394017  7572 net.cpp:156] Memory required for data: 27797504
I1113 14:16:53.394017  7572 layer_factory.hpp:77] Creating layer inception_3b/relu_1x1
I1113 14:16:53.394017  7572 net.cpp:91] Creating Layer inception_3b/relu_1x1
I1113 14:16:53.394017  7572 net.cpp:425] inception_3b/relu_1x1 <- inception_3b/1x1
I1113 14:16:53.394017  7572 net.cpp:386] inception_3b/relu_1x1 -> inception_3b/1x1 (in-place)
I1113 14:16:53.394017  7572 net.cpp:141] Setting up inception_3b/relu_1x1
I1113 14:16:53.394017  7572 net.cpp:148] Top shape: 1 128 28 28 (100352)
I1113 14:16:53.394017  7572 net.cpp:156] Memory required for data: 28198912
I1113 14:16:53.394017  7572 layer_factory.hpp:77] Creating layer inception_3b/3x3_reduce
I1113 14:16:53.394017  7572 net.cpp:91] Creating Layer inception_3b/3x3_reduce
I1113 14:16:53.394017  7572 net.cpp:425] inception_3b/3x3_reduce <- inception_3a/output_inception_3a/output_0_split_1
I1113 14:16:53.394017  7572 net.cpp:399] inception_3b/3x3_reduce -> inception_3b/3x3_reduce
I1113 14:16:53.397019  7572 net.cpp:141] Setting up inception_3b/3x3_reduce
I1113 14:16:53.397019  7572 net.cpp:148] Top shape: 1 128 28 28 (100352)
I1113 14:16:53.397019  7572 net.cpp:156] Memory required for data: 28600320
I1113 14:16:53.397019  7572 layer_factory.hpp:77] Creating layer inception_3b/relu_3x3_reduce
I1113 14:16:53.397019  7572 net.cpp:91] Creating Layer inception_3b/relu_3x3_reduce
I1113 14:16:53.397019  7572 net.cpp:425] inception_3b/relu_3x3_reduce <- inception_3b/3x3_reduce
I1113 14:16:53.397019  7572 net.cpp:386] inception_3b/relu_3x3_reduce -> inception_3b/3x3_reduce (in-place)
I1113 14:16:53.397019  7572 net.cpp:141] Setting up inception_3b/relu_3x3_reduce
I1113 14:16:53.397019  7572 net.cpp:148] Top shape: 1 128 28 28 (100352)
I1113 14:16:53.397019  7572 net.cpp:156] Memory required for data: 29001728
I1113 14:16:53.397019  7572 layer_factory.hpp:77] Creating layer inception_3b/3x3
I1113 14:16:53.397019  7572 net.cpp:91] Creating Layer inception_3b/3x3
I1113 14:16:53.397019  7572 net.cpp:425] inception_3b/3x3 <- inception_3b/3x3_reduce
I1113 14:16:53.397019  7572 net.cpp:399] inception_3b/3x3 -> inception_3b/3x3
I1113 14:16:53.401023  7572 net.cpp:141] Setting up inception_3b/3x3
I1113 14:16:53.401023  7572 net.cpp:148] Top shape: 1 192 28 28 (150528)
I1113 14:16:53.401023  7572 net.cpp:156] Memory required for data: 29603840
I1113 14:16:53.401023  7572 layer_factory.hpp:77] Creating layer inception_3b/relu_3x3
I1113 14:16:53.401023  7572 net.cpp:91] Creating Layer inception_3b/relu_3x3
I1113 14:16:53.401023  7572 net.cpp:425] inception_3b/relu_3x3 <- inception_3b/3x3
I1113 14:16:53.401023  7572 net.cpp:386] inception_3b/relu_3x3 -> inception_3b/3x3 (in-place)
I1113 14:16:53.401523  7572 net.cpp:141] Setting up inception_3b/relu_3x3
I1113 14:16:53.401523  7572 net.cpp:148] Top shape: 1 192 28 28 (150528)
I1113 14:16:53.401523  7572 net.cpp:156] Memory required for data: 30205952
I1113 14:16:53.401523  7572 layer_factory.hpp:77] Creating layer inception_3b/5x5_reduce
I1113 14:16:53.401523  7572 net.cpp:91] Creating Layer inception_3b/5x5_reduce
I1113 14:16:53.401523  7572 net.cpp:425] inception_3b/5x5_reduce <- inception_3a/output_inception_3a/output_0_split_2
I1113 14:16:53.401523  7572 net.cpp:399] inception_3b/5x5_reduce -> inception_3b/5x5_reduce
I1113 14:16:53.401523  7572 net.cpp:141] Setting up inception_3b/5x5_reduce
I1113 14:16:53.401523  7572 net.cpp:148] Top shape: 1 32 28 28 (25088)
I1113 14:16:53.401523  7572 net.cpp:156] Memory required for data: 30306304
I1113 14:16:53.401523  7572 layer_factory.hpp:77] Creating layer inception_3b/relu_5x5_reduce
I1113 14:16:53.401523  7572 net.cpp:91] Creating Layer inception_3b/relu_5x5_reduce
I1113 14:16:53.401523  7572 net.cpp:425] inception_3b/relu_5x5_reduce <- inception_3b/5x5_reduce
I1113 14:16:53.401523  7572 net.cpp:386] inception_3b/relu_5x5_reduce -> inception_3b/5x5_reduce (in-place)
I1113 14:16:53.401523  7572 net.cpp:141] Setting up inception_3b/relu_5x5_reduce
I1113 14:16:53.401523  7572 net.cpp:148] Top shape: 1 32 28 28 (25088)
I1113 14:16:53.401523  7572 net.cpp:156] Memory required for data: 30406656
I1113 14:16:53.401523  7572 layer_factory.hpp:77] Creating layer inception_3b/5x5
I1113 14:16:53.402024  7572 net.cpp:91] Creating Layer inception_3b/5x5
I1113 14:16:53.402024  7572 net.cpp:425] inception_3b/5x5 <- inception_3b/5x5_reduce
I1113 14:16:53.402024  7572 net.cpp:399] inception_3b/5x5 -> inception_3b/5x5
I1113 14:16:53.403024  7572 net.cpp:141] Setting up inception_3b/5x5
I1113 14:16:53.403024  7572 net.cpp:148] Top shape: 1 96 28 28 (75264)
I1113 14:16:53.403024  7572 net.cpp:156] Memory required for data: 30707712
I1113 14:16:53.403024  7572 layer_factory.hpp:77] Creating layer inception_3b/relu_5x5
I1113 14:16:53.403024  7572 net.cpp:91] Creating Layer inception_3b/relu_5x5
I1113 14:16:53.403024  7572 net.cpp:425] inception_3b/relu_5x5 <- inception_3b/5x5
I1113 14:16:53.403024  7572 net.cpp:386] inception_3b/relu_5x5 -> inception_3b/5x5 (in-place)
I1113 14:16:53.403024  7572 net.cpp:141] Setting up inception_3b/relu_5x5
I1113 14:16:53.403024  7572 net.cpp:148] Top shape: 1 96 28 28 (75264)
I1113 14:16:53.403024  7572 net.cpp:156] Memory required for data: 31008768
I1113 14:16:53.403024  7572 layer_factory.hpp:77] Creating layer inception_3b/pool
I1113 14:16:53.403024  7572 net.cpp:91] Creating Layer inception_3b/pool
I1113 14:16:53.403524  7572 net.cpp:425] inception_3b/pool <- inception_3a/output_inception_3a/output_0_split_3
I1113 14:16:53.403524  7572 net.cpp:399] inception_3b/pool -> inception_3b/pool
I1113 14:16:53.403524  7572 net.cpp:141] Setting up inception_3b/pool
I1113 14:16:53.403524  7572 net.cpp:148] Top shape: 1 256 28 28 (200704)
I1113 14:16:53.403524  7572 net.cpp:156] Memory required for data: 31811584
I1113 14:16:53.403524  7572 layer_factory.hpp:77] Creating layer inception_3b/pool_proj
I1113 14:16:53.403524  7572 net.cpp:91] Creating Layer inception_3b/pool_proj
I1113 14:16:53.403524  7572 net.cpp:425] inception_3b/pool_proj <- inception_3b/pool
I1113 14:16:53.403524  7572 net.cpp:399] inception_3b/pool_proj -> inception_3b/pool_proj
I1113 14:16:53.403524  7572 net.cpp:141] Setting up inception_3b/pool_proj
I1113 14:16:53.403524  7572 net.cpp:148] Top shape: 1 64 28 28 (50176)
I1113 14:16:53.403524  7572 net.cpp:156] Memory required for data: 32012288
I1113 14:16:53.404026  7572 layer_factory.hpp:77] Creating layer inception_3b/relu_pool_proj
I1113 14:16:53.404026  7572 net.cpp:91] Creating Layer inception_3b/relu_pool_proj
I1113 14:16:53.404026  7572 net.cpp:425] inception_3b/relu_pool_proj <- inception_3b/pool_proj
I1113 14:16:53.404026  7572 net.cpp:386] inception_3b/relu_pool_proj -> inception_3b/pool_proj (in-place)
I1113 14:16:53.404026  7572 net.cpp:141] Setting up inception_3b/relu_pool_proj
I1113 14:16:53.404026  7572 net.cpp:148] Top shape: 1 64 28 28 (50176)
I1113 14:16:53.404026  7572 net.cpp:156] Memory required for data: 32212992
I1113 14:16:53.404026  7572 layer_factory.hpp:77] Creating layer inception_3b/output
I1113 14:16:53.404026  7572 net.cpp:91] Creating Layer inception_3b/output
I1113 14:16:53.404026  7572 net.cpp:425] inception_3b/output <- inception_3b/1x1
I1113 14:16:53.404026  7572 net.cpp:425] inception_3b/output <- inception_3b/3x3
I1113 14:16:53.404026  7572 net.cpp:425] inception_3b/output <- inception_3b/5x5
I1113 14:16:53.404026  7572 net.cpp:425] inception_3b/output <- inception_3b/pool_proj
I1113 14:16:53.404026  7572 net.cpp:399] inception_3b/output -> inception_3b/output
I1113 14:16:53.404026  7572 net.cpp:141] Setting up inception_3b/output
I1113 14:16:53.404026  7572 net.cpp:148] Top shape: 1 480 28 28 (376320)
I1113 14:16:53.404026  7572 net.cpp:156] Memory required for data: 33718272
I1113 14:16:53.404026  7572 layer_factory.hpp:77] Creating layer pool3/3x3_s2
I1113 14:16:53.404026  7572 net.cpp:91] Creating Layer pool3/3x3_s2
I1113 14:16:53.404026  7572 net.cpp:425] pool3/3x3_s2 <- inception_3b/output
I1113 14:16:53.404026  7572 net.cpp:399] pool3/3x3_s2 -> pool3/3x3_s2
I1113 14:16:53.404026  7572 net.cpp:141] Setting up pool3/3x3_s2
I1113 14:16:53.404026  7572 net.cpp:148] Top shape: 1 480 14 14 (94080)
I1113 14:16:53.404026  7572 net.cpp:156] Memory required for data: 34094592
I1113 14:16:53.404026  7572 layer_factory.hpp:77] Creating layer pool3/3x3_s2_pool3/3x3_s2_0_split
I1113 14:16:53.404026  7572 net.cpp:91] Creating Layer pool3/3x3_s2_pool3/3x3_s2_0_split
I1113 14:16:53.404026  7572 net.cpp:425] pool3/3x3_s2_pool3/3x3_s2_0_split <- pool3/3x3_s2
I1113 14:16:53.404026  7572 net.cpp:399] pool3/3x3_s2_pool3/3x3_s2_0_split -> pool3/3x3_s2_pool3/3x3_s2_0_split_0
I1113 14:16:53.404026  7572 net.cpp:399] pool3/3x3_s2_pool3/3x3_s2_0_split -> pool3/3x3_s2_pool3/3x3_s2_0_split_1
I1113 14:16:53.404026  7572 net.cpp:399] pool3/3x3_s2_pool3/3x3_s2_0_split -> pool3/3x3_s2_pool3/3x3_s2_0_split_2
I1113 14:16:53.404026  7572 net.cpp:399] pool3/3x3_s2_pool3/3x3_s2_0_split -> pool3/3x3_s2_pool3/3x3_s2_0_split_3
I1113 14:16:53.404026  7572 net.cpp:141] Setting up pool3/3x3_s2_pool3/3x3_s2_0_split
I1113 14:16:53.404525  7572 net.cpp:148] Top shape: 1 480 14 14 (94080)
I1113 14:16:53.404525  7572 net.cpp:148] Top shape: 1 480 14 14 (94080)
I1113 14:16:53.404525  7572 net.cpp:148] Top shape: 1 480 14 14 (94080)
I1113 14:16:53.404525  7572 net.cpp:148] Top shape: 1 480 14 14 (94080)
I1113 14:16:53.404525  7572 net.cpp:156] Memory required for data: 35599872
I1113 14:16:53.404525  7572 layer_factory.hpp:77] Creating layer inception_4a/1x1
I1113 14:16:53.404525  7572 net.cpp:91] Creating Layer inception_4a/1x1
I1113 14:16:53.404525  7572 net.cpp:425] inception_4a/1x1 <- pool3/3x3_s2_pool3/3x3_s2_0_split_0
I1113 14:16:53.404525  7572 net.cpp:399] inception_4a/1x1 -> inception_4a/1x1
I1113 14:16:53.407027  7572 net.cpp:141] Setting up inception_4a/1x1
I1113 14:16:53.407027  7572 net.cpp:148] Top shape: 1 192 14 14 (37632)
I1113 14:16:53.407027  7572 net.cpp:156] Memory required for data: 35750400
I1113 14:16:53.407027  7572 layer_factory.hpp:77] Creating layer inception_4a/relu_1x1
I1113 14:16:53.407027  7572 net.cpp:91] Creating Layer inception_4a/relu_1x1
I1113 14:16:53.407027  7572 net.cpp:425] inception_4a/relu_1x1 <- inception_4a/1x1
I1113 14:16:53.407027  7572 net.cpp:386] inception_4a/relu_1x1 -> inception_4a/1x1 (in-place)
I1113 14:16:53.407027  7572 net.cpp:141] Setting up inception_4a/relu_1x1
I1113 14:16:53.407027  7572 net.cpp:148] Top shape: 1 192 14 14 (37632)
I1113 14:16:53.407027  7572 net.cpp:156] Memory required for data: 35900928
I1113 14:16:53.407027  7572 layer_factory.hpp:77] Creating layer inception_4a/3x3_reduce
I1113 14:16:53.407027  7572 net.cpp:91] Creating Layer inception_4a/3x3_reduce
I1113 14:16:53.407027  7572 net.cpp:425] inception_4a/3x3_reduce <- pool3/3x3_s2_pool3/3x3_s2_0_split_1
I1113 14:16:53.407027  7572 net.cpp:399] inception_4a/3x3_reduce -> inception_4a/3x3_reduce
I1113 14:16:53.408027  7572 net.cpp:141] Setting up inception_4a/3x3_reduce
I1113 14:16:53.408027  7572 net.cpp:148] Top shape: 1 96 14 14 (18816)
I1113 14:16:53.408027  7572 net.cpp:156] Memory required for data: 35976192
I1113 14:16:53.408027  7572 layer_factory.hpp:77] Creating layer inception_4a/relu_3x3_reduce
I1113 14:16:53.408027  7572 net.cpp:91] Creating Layer inception_4a/relu_3x3_reduce
I1113 14:16:53.408027  7572 net.cpp:425] inception_4a/relu_3x3_reduce <- inception_4a/3x3_reduce
I1113 14:16:53.408027  7572 net.cpp:386] inception_4a/relu_3x3_reduce -> inception_4a/3x3_reduce (in-place)
I1113 14:16:53.408027  7572 net.cpp:141] Setting up inception_4a/relu_3x3_reduce
I1113 14:16:53.408027  7572 net.cpp:148] Top shape: 1 96 14 14 (18816)
I1113 14:16:53.408027  7572 net.cpp:156] Memory required for data: 36051456
I1113 14:16:53.408027  7572 layer_factory.hpp:77] Creating layer inception_4a/3x3
I1113 14:16:53.408027  7572 net.cpp:91] Creating Layer inception_4a/3x3
I1113 14:16:53.408027  7572 net.cpp:425] inception_4a/3x3 <- inception_4a/3x3_reduce
I1113 14:16:53.408529  7572 net.cpp:399] inception_4a/3x3 -> inception_4a/3x3
I1113 14:16:53.411530  7572 net.cpp:141] Setting up inception_4a/3x3
I1113 14:16:53.411530  7572 net.cpp:148] Top shape: 1 208 14 14 (40768)
I1113 14:16:53.411530  7572 net.cpp:156] Memory required for data: 36214528
I1113 14:16:53.411530  7572 layer_factory.hpp:77] Creating layer inception_4a/relu_3x3
I1113 14:16:53.411530  7572 net.cpp:91] Creating Layer inception_4a/relu_3x3
I1113 14:16:53.411530  7572 net.cpp:425] inception_4a/relu_3x3 <- inception_4a/3x3
I1113 14:16:53.411530  7572 net.cpp:386] inception_4a/relu_3x3 -> inception_4a/3x3 (in-place)
I1113 14:16:53.411530  7572 net.cpp:141] Setting up inception_4a/relu_3x3
I1113 14:16:53.411530  7572 net.cpp:148] Top shape: 1 208 14 14 (40768)
I1113 14:16:53.411530  7572 net.cpp:156] Memory required for data: 36377600
I1113 14:16:53.411530  7572 layer_factory.hpp:77] Creating layer inception_4a/5x5_reduce
I1113 14:16:53.411530  7572 net.cpp:91] Creating Layer inception_4a/5x5_reduce
I1113 14:16:53.411530  7572 net.cpp:425] inception_4a/5x5_reduce <- pool3/3x3_s2_pool3/3x3_s2_0_split_2
I1113 14:16:53.411530  7572 net.cpp:399] inception_4a/5x5_reduce -> inception_4a/5x5_reduce
I1113 14:16:53.411530  7572 net.cpp:141] Setting up inception_4a/5x5_reduce
I1113 14:16:53.412031  7572 net.cpp:148] Top shape: 1 16 14 14 (3136)
I1113 14:16:53.412031  7572 net.cpp:156] Memory required for data: 36390144
I1113 14:16:53.412031  7572 layer_factory.hpp:77] Creating layer inception_4a/relu_5x5_reduce
I1113 14:16:53.412031  7572 net.cpp:91] Creating Layer inception_4a/relu_5x5_reduce
I1113 14:16:53.412031  7572 net.cpp:425] inception_4a/relu_5x5_reduce <- inception_4a/5x5_reduce
I1113 14:16:53.412031  7572 net.cpp:386] inception_4a/relu_5x5_reduce -> inception_4a/5x5_reduce (in-place)
I1113 14:16:53.422037  7572 net.cpp:141] Setting up inception_4a/relu_5x5_reduce
I1113 14:16:53.422037  7572 net.cpp:148] Top shape: 1 16 14 14 (3136)
I1113 14:16:53.422037  7572 net.cpp:156] Memory required for data: 36402688
I1113 14:16:53.422037  7572 layer_factory.hpp:77] Creating layer inception_4a/5x5
I1113 14:16:53.422538  7572 net.cpp:91] Creating Layer inception_4a/5x5
I1113 14:16:53.422538  7572 net.cpp:425] inception_4a/5x5 <- inception_4a/5x5_reduce
I1113 14:16:53.422538  7572 net.cpp:399] inception_4a/5x5 -> inception_4a/5x5
I1113 14:16:53.423538  7572 net.cpp:141] Setting up inception_4a/5x5
I1113 14:16:53.423538  7572 net.cpp:148] Top shape: 1 48 14 14 (9408)
I1113 14:16:53.423538  7572 net.cpp:156] Memory required for data: 36440320
I1113 14:16:53.423538  7572 layer_factory.hpp:77] Creating layer inception_4a/relu_5x5
I1113 14:16:53.424039  7572 net.cpp:91] Creating Layer inception_4a/relu_5x5
I1113 14:16:53.424039  7572 net.cpp:425] inception_4a/relu_5x5 <- inception_4a/5x5
I1113 14:16:53.424039  7572 net.cpp:386] inception_4a/relu_5x5 -> inception_4a/5x5 (in-place)
I1113 14:16:53.424039  7572 net.cpp:141] Setting up inception_4a/relu_5x5
I1113 14:16:53.424039  7572 net.cpp:148] Top shape: 1 48 14 14 (9408)
I1113 14:16:53.424039  7572 net.cpp:156] Memory required for data: 36477952
I1113 14:16:53.424039  7572 layer_factory.hpp:77] Creating layer inception_4a/pool
I1113 14:16:53.424039  7572 net.cpp:91] Creating Layer inception_4a/pool
I1113 14:16:53.424039  7572 net.cpp:425] inception_4a/pool <- pool3/3x3_s2_pool3/3x3_s2_0_split_3
I1113 14:16:53.424039  7572 net.cpp:399] inception_4a/pool -> inception_4a/pool
I1113 14:16:53.424039  7572 net.cpp:141] Setting up inception_4a/pool
I1113 14:16:53.424039  7572 net.cpp:148] Top shape: 1 480 14 14 (94080)
I1113 14:16:53.424039  7572 net.cpp:156] Memory required for data: 36854272
I1113 14:16:53.424039  7572 layer_factory.hpp:77] Creating layer inception_4a/pool_proj
I1113 14:16:53.424039  7572 net.cpp:91] Creating Layer inception_4a/pool_proj
I1113 14:16:53.424039  7572 net.cpp:425] inception_4a/pool_proj <- inception_4a/pool
I1113 14:16:53.424540  7572 net.cpp:399] inception_4a/pool_proj -> inception_4a/pool_proj
I1113 14:16:53.425040  7572 net.cpp:141] Setting up inception_4a/pool_proj
I1113 14:16:53.425540  7572 net.cpp:148] Top shape: 1 64 14 14 (12544)
I1113 14:16:53.425540  7572 net.cpp:156] Memory required for data: 36904448
I1113 14:16:53.425540  7572 layer_factory.hpp:77] Creating layer inception_4a/relu_pool_proj
I1113 14:16:53.425540  7572 net.cpp:91] Creating Layer inception_4a/relu_pool_proj
I1113 14:16:53.425540  7572 net.cpp:425] inception_4a/relu_pool_proj <- inception_4a/pool_proj
I1113 14:16:53.425540  7572 net.cpp:386] inception_4a/relu_pool_proj -> inception_4a/pool_proj (in-place)
I1113 14:16:53.425540  7572 net.cpp:141] Setting up inception_4a/relu_pool_proj
I1113 14:16:53.425540  7572 net.cpp:148] Top shape: 1 64 14 14 (12544)
I1113 14:16:53.425540  7572 net.cpp:156] Memory required for data: 36954624
I1113 14:16:53.425540  7572 layer_factory.hpp:77] Creating layer inception_4a/output
I1113 14:16:53.425540  7572 net.cpp:91] Creating Layer inception_4a/output
I1113 14:16:53.425540  7572 net.cpp:425] inception_4a/output <- inception_4a/1x1
I1113 14:16:53.425540  7572 net.cpp:425] inception_4a/output <- inception_4a/3x3
I1113 14:16:53.425540  7572 net.cpp:425] inception_4a/output <- inception_4a/5x5
I1113 14:16:53.425540  7572 net.cpp:425] inception_4a/output <- inception_4a/pool_proj
I1113 14:16:53.425540  7572 net.cpp:399] inception_4a/output -> inception_4a/output
I1113 14:16:53.425540  7572 net.cpp:141] Setting up inception_4a/output
I1113 14:16:53.425540  7572 net.cpp:148] Top shape: 1 512 14 14 (100352)
I1113 14:16:53.425540  7572 net.cpp:156] Memory required for data: 37356032
I1113 14:16:53.425540  7572 layer_factory.hpp:77] Creating layer inception_4a/output_inception_4a/output_0_split
I1113 14:16:53.425540  7572 net.cpp:91] Creating Layer inception_4a/output_inception_4a/output_0_split
I1113 14:16:53.425540  7572 net.cpp:425] inception_4a/output_inception_4a/output_0_split <- inception_4a/output
I1113 14:16:53.425540  7572 net.cpp:399] inception_4a/output_inception_4a/output_0_split -> inception_4a/output_inception_4a/output_0_split_0
I1113 14:16:53.425540  7572 net.cpp:399] inception_4a/output_inception_4a/output_0_split -> inception_4a/output_inception_4a/output_0_split_1
I1113 14:16:53.425540  7572 net.cpp:399] inception_4a/output_inception_4a/output_0_split -> inception_4a/output_inception_4a/output_0_split_2
I1113 14:16:53.425540  7572 net.cpp:399] inception_4a/output_inception_4a/output_0_split -> inception_4a/output_inception_4a/output_0_split_3
I1113 14:16:53.425540  7572 net.cpp:141] Setting up inception_4a/output_inception_4a/output_0_split
I1113 14:16:53.425540  7572 net.cpp:148] Top shape: 1 512 14 14 (100352)
I1113 14:16:53.425540  7572 net.cpp:148] Top shape: 1 512 14 14 (100352)
I1113 14:16:53.425540  7572 net.cpp:148] Top shape: 1 512 14 14 (100352)
I1113 14:16:53.425540  7572 net.cpp:148] Top shape: 1 512 14 14 (100352)
I1113 14:16:53.425540  7572 net.cpp:156] Memory required for data: 38961664
I1113 14:16:53.425540  7572 layer_factory.hpp:77] Creating layer inception_4b/1x1
I1113 14:16:53.425540  7572 net.cpp:91] Creating Layer inception_4b/1x1
I1113 14:16:53.425540  7572 net.cpp:425] inception_4b/1x1 <- inception_4a/output_inception_4a/output_0_split_0
I1113 14:16:53.426040  7572 net.cpp:399] inception_4b/1x1 -> inception_4b/1x1
I1113 14:16:53.427541  7572 net.cpp:141] Setting up inception_4b/1x1
I1113 14:16:53.427541  7572 net.cpp:148] Top shape: 1 160 14 14 (31360)
I1113 14:16:53.427541  7572 net.cpp:156] Memory required for data: 39087104
I1113 14:16:53.427541  7572 layer_factory.hpp:77] Creating layer inception_4b/relu_1x1
I1113 14:16:53.427541  7572 net.cpp:91] Creating Layer inception_4b/relu_1x1
I1113 14:16:53.427541  7572 net.cpp:425] inception_4b/relu_1x1 <- inception_4b/1x1
I1113 14:16:53.427541  7572 net.cpp:386] inception_4b/relu_1x1 -> inception_4b/1x1 (in-place)
I1113 14:16:53.427541  7572 net.cpp:141] Setting up inception_4b/relu_1x1
I1113 14:16:53.427541  7572 net.cpp:148] Top shape: 1 160 14 14 (31360)
I1113 14:16:53.427541  7572 net.cpp:156] Memory required for data: 39212544
I1113 14:16:53.427541  7572 layer_factory.hpp:77] Creating layer inception_4b/3x3_reduce
I1113 14:16:53.427541  7572 net.cpp:91] Creating Layer inception_4b/3x3_reduce
I1113 14:16:53.427541  7572 net.cpp:425] inception_4b/3x3_reduce <- inception_4a/output_inception_4a/output_0_split_1
I1113 14:16:53.427541  7572 net.cpp:399] inception_4b/3x3_reduce -> inception_4b/3x3_reduce
I1113 14:16:53.428542  7572 net.cpp:141] Setting up inception_4b/3x3_reduce
I1113 14:16:53.429042  7572 net.cpp:148] Top shape: 1 112 14 14 (21952)
I1113 14:16:53.429042  7572 net.cpp:156] Memory required for data: 39300352
I1113 14:16:53.429042  7572 layer_factory.hpp:77] Creating layer inception_4b/relu_3x3_reduce
I1113 14:16:53.429042  7572 net.cpp:91] Creating Layer inception_4b/relu_3x3_reduce
I1113 14:16:53.429042  7572 net.cpp:425] inception_4b/relu_3x3_reduce <- inception_4b/3x3_reduce
I1113 14:16:53.429042  7572 net.cpp:386] inception_4b/relu_3x3_reduce -> inception_4b/3x3_reduce (in-place)
I1113 14:16:53.429042  7572 net.cpp:141] Setting up inception_4b/relu_3x3_reduce
I1113 14:16:53.429042  7572 net.cpp:148] Top shape: 1 112 14 14 (21952)
I1113 14:16:53.429042  7572 net.cpp:156] Memory required for data: 39388160
I1113 14:16:53.429042  7572 layer_factory.hpp:77] Creating layer inception_4b/3x3
I1113 14:16:53.429042  7572 net.cpp:91] Creating Layer inception_4b/3x3
I1113 14:16:53.429042  7572 net.cpp:425] inception_4b/3x3 <- inception_4b/3x3_reduce
I1113 14:16:53.429042  7572 net.cpp:399] inception_4b/3x3 -> inception_4b/3x3
I1113 14:16:53.433045  7572 net.cpp:141] Setting up inception_4b/3x3
I1113 14:16:53.433045  7572 net.cpp:148] Top shape: 1 224 14 14 (43904)
I1113 14:16:53.433045  7572 net.cpp:156] Memory required for data: 39563776
I1113 14:16:53.433045  7572 layer_factory.hpp:77] Creating layer inception_4b/relu_3x3
I1113 14:16:53.433045  7572 net.cpp:91] Creating Layer inception_4b/relu_3x3
I1113 14:16:53.433045  7572 net.cpp:425] inception_4b/relu_3x3 <- inception_4b/3x3
I1113 14:16:53.433045  7572 net.cpp:386] inception_4b/relu_3x3 -> inception_4b/3x3 (in-place)
I1113 14:16:53.433045  7572 net.cpp:141] Setting up inception_4b/relu_3x3
I1113 14:16:53.433045  7572 net.cpp:148] Top shape: 1 224 14 14 (43904)
I1113 14:16:53.433045  7572 net.cpp:156] Memory required for data: 39739392
I1113 14:16:53.433045  7572 layer_factory.hpp:77] Creating layer inception_4b/5x5_reduce
I1113 14:16:53.433045  7572 net.cpp:91] Creating Layer inception_4b/5x5_reduce
I1113 14:16:53.433045  7572 net.cpp:425] inception_4b/5x5_reduce <- inception_4a/output_inception_4a/output_0_split_2
I1113 14:16:53.433045  7572 net.cpp:399] inception_4b/5x5_reduce -> inception_4b/5x5_reduce
I1113 14:16:53.433547  7572 net.cpp:141] Setting up inception_4b/5x5_reduce
I1113 14:16:53.433547  7572 net.cpp:148] Top shape: 1 24 14 14 (4704)
I1113 14:16:53.433547  7572 net.cpp:156] Memory required for data: 39758208
I1113 14:16:53.433547  7572 layer_factory.hpp:77] Creating layer inception_4b/relu_5x5_reduce
I1113 14:16:53.433547  7572 net.cpp:91] Creating Layer inception_4b/relu_5x5_reduce
I1113 14:16:53.433547  7572 net.cpp:425] inception_4b/relu_5x5_reduce <- inception_4b/5x5_reduce
I1113 14:16:53.433547  7572 net.cpp:386] inception_4b/relu_5x5_reduce -> inception_4b/5x5_reduce (in-place)
I1113 14:16:53.433547  7572 net.cpp:141] Setting up inception_4b/relu_5x5_reduce
I1113 14:16:53.433547  7572 net.cpp:148] Top shape: 1 24 14 14 (4704)
I1113 14:16:53.433547  7572 net.cpp:156] Memory required for data: 39777024
I1113 14:16:53.433547  7572 layer_factory.hpp:77] Creating layer inception_4b/5x5
I1113 14:16:53.433547  7572 net.cpp:91] Creating Layer inception_4b/5x5
I1113 14:16:53.433547  7572 net.cpp:425] inception_4b/5x5 <- inception_4b/5x5_reduce
I1113 14:16:53.433547  7572 net.cpp:399] inception_4b/5x5 -> inception_4b/5x5
I1113 14:16:53.434547  7572 net.cpp:141] Setting up inception_4b/5x5
I1113 14:16:53.434547  7572 net.cpp:148] Top shape: 1 64 14 14 (12544)
I1113 14:16:53.434547  7572 net.cpp:156] Memory required for data: 39827200
I1113 14:16:53.434547  7572 layer_factory.hpp:77] Creating layer inception_4b/relu_5x5
I1113 14:16:53.434547  7572 net.cpp:91] Creating Layer inception_4b/relu_5x5
I1113 14:16:53.434547  7572 net.cpp:425] inception_4b/relu_5x5 <- inception_4b/5x5
I1113 14:16:53.434547  7572 net.cpp:386] inception_4b/relu_5x5 -> inception_4b/5x5 (in-place)
I1113 14:16:53.434547  7572 net.cpp:141] Setting up inception_4b/relu_5x5
I1113 14:16:53.434547  7572 net.cpp:148] Top shape: 1 64 14 14 (12544)
I1113 14:16:53.434547  7572 net.cpp:156] Memory required for data: 39877376
I1113 14:16:53.434547  7572 layer_factory.hpp:77] Creating layer inception_4b/pool
I1113 14:16:53.434547  7572 net.cpp:91] Creating Layer inception_4b/pool
I1113 14:16:53.434547  7572 net.cpp:425] inception_4b/pool <- inception_4a/output_inception_4a/output_0_split_3
I1113 14:16:53.434547  7572 net.cpp:399] inception_4b/pool -> inception_4b/pool
I1113 14:16:53.434547  7572 net.cpp:141] Setting up inception_4b/pool
I1113 14:16:53.434547  7572 net.cpp:148] Top shape: 1 512 14 14 (100352)
I1113 14:16:53.434547  7572 net.cpp:156] Memory required for data: 40278784
I1113 14:16:53.434547  7572 layer_factory.hpp:77] Creating layer inception_4b/pool_proj
I1113 14:16:53.434547  7572 net.cpp:91] Creating Layer inception_4b/pool_proj
I1113 14:16:53.434547  7572 net.cpp:425] inception_4b/pool_proj <- inception_4b/pool
I1113 14:16:53.434547  7572 net.cpp:399] inception_4b/pool_proj -> inception_4b/pool_proj
I1113 14:16:53.435047  7572 net.cpp:141] Setting up inception_4b/pool_proj
I1113 14:16:53.435047  7572 net.cpp:148] Top shape: 1 64 14 14 (12544)
I1113 14:16:53.435047  7572 net.cpp:156] Memory required for data: 40328960
I1113 14:16:53.435047  7572 layer_factory.hpp:77] Creating layer inception_4b/relu_pool_proj
I1113 14:16:53.435547  7572 net.cpp:91] Creating Layer inception_4b/relu_pool_proj
I1113 14:16:53.435547  7572 net.cpp:425] inception_4b/relu_pool_proj <- inception_4b/pool_proj
I1113 14:16:53.435547  7572 net.cpp:386] inception_4b/relu_pool_proj -> inception_4b/pool_proj (in-place)
I1113 14:16:53.435547  7572 net.cpp:141] Setting up inception_4b/relu_pool_proj
I1113 14:16:53.435547  7572 net.cpp:148] Top shape: 1 64 14 14 (12544)
I1113 14:16:53.435547  7572 net.cpp:156] Memory required for data: 40379136
I1113 14:16:53.435547  7572 layer_factory.hpp:77] Creating layer inception_4b/output
I1113 14:16:53.435547  7572 net.cpp:91] Creating Layer inception_4b/output
I1113 14:16:53.435547  7572 net.cpp:425] inception_4b/output <- inception_4b/1x1
I1113 14:16:53.435547  7572 net.cpp:425] inception_4b/output <- inception_4b/3x3
I1113 14:16:53.435547  7572 net.cpp:425] inception_4b/output <- inception_4b/5x5
I1113 14:16:53.435547  7572 net.cpp:425] inception_4b/output <- inception_4b/pool_proj
I1113 14:16:53.435547  7572 net.cpp:399] inception_4b/output -> inception_4b/output
I1113 14:16:53.435547  7572 net.cpp:141] Setting up inception_4b/output
I1113 14:16:53.435547  7572 net.cpp:148] Top shape: 1 512 14 14 (100352)
I1113 14:16:53.435547  7572 net.cpp:156] Memory required for data: 40780544
I1113 14:16:53.435547  7572 layer_factory.hpp:77] Creating layer inception_4b/output_inception_4b/output_0_split
I1113 14:16:53.435547  7572 net.cpp:91] Creating Layer inception_4b/output_inception_4b/output_0_split
I1113 14:16:53.435547  7572 net.cpp:425] inception_4b/output_inception_4b/output_0_split <- inception_4b/output
I1113 14:16:53.435547  7572 net.cpp:399] inception_4b/output_inception_4b/output_0_split -> inception_4b/output_inception_4b/output_0_split_0
I1113 14:16:53.435547  7572 net.cpp:399] inception_4b/output_inception_4b/output_0_split -> inception_4b/output_inception_4b/output_0_split_1
I1113 14:16:53.435547  7572 net.cpp:399] inception_4b/output_inception_4b/output_0_split -> inception_4b/output_inception_4b/output_0_split_2
I1113 14:16:53.435547  7572 net.cpp:399] inception_4b/output_inception_4b/output_0_split -> inception_4b/output_inception_4b/output_0_split_3
I1113 14:16:53.435547  7572 net.cpp:141] Setting up inception_4b/output_inception_4b/output_0_split
I1113 14:16:53.435547  7572 net.cpp:148] Top shape: 1 512 14 14 (100352)
I1113 14:16:53.435547  7572 net.cpp:148] Top shape: 1 512 14 14 (100352)
I1113 14:16:53.435547  7572 net.cpp:148] Top shape: 1 512 14 14 (100352)
I1113 14:16:53.435547  7572 net.cpp:148] Top shape: 1 512 14 14 (100352)
I1113 14:16:53.435547  7572 net.cpp:156] Memory required for data: 42386176
I1113 14:16:53.435547  7572 layer_factory.hpp:77] Creating layer inception_4c/1x1
I1113 14:16:53.435547  7572 net.cpp:91] Creating Layer inception_4c/1x1
I1113 14:16:53.435547  7572 net.cpp:425] inception_4c/1x1 <- inception_4b/output_inception_4b/output_0_split_0
I1113 14:16:53.435547  7572 net.cpp:399] inception_4c/1x1 -> inception_4c/1x1
I1113 14:16:53.437048  7572 net.cpp:141] Setting up inception_4c/1x1
I1113 14:16:53.437048  7572 net.cpp:148] Top shape: 1 128 14 14 (25088)
I1113 14:16:53.437048  7572 net.cpp:156] Memory required for data: 42486528
I1113 14:16:53.437048  7572 layer_factory.hpp:77] Creating layer inception_4c/relu_1x1
I1113 14:16:53.437048  7572 net.cpp:91] Creating Layer inception_4c/relu_1x1
I1113 14:16:53.437048  7572 net.cpp:425] inception_4c/relu_1x1 <- inception_4c/1x1
I1113 14:16:53.437048  7572 net.cpp:386] inception_4c/relu_1x1 -> inception_4c/1x1 (in-place)
I1113 14:16:53.437048  7572 net.cpp:141] Setting up inception_4c/relu_1x1
I1113 14:16:53.437048  7572 net.cpp:148] Top shape: 1 128 14 14 (25088)
I1113 14:16:53.437048  7572 net.cpp:156] Memory required for data: 42586880
I1113 14:16:53.437048  7572 layer_factory.hpp:77] Creating layer inception_4c/3x3_reduce
I1113 14:16:53.437048  7572 net.cpp:91] Creating Layer inception_4c/3x3_reduce
I1113 14:16:53.437048  7572 net.cpp:425] inception_4c/3x3_reduce <- inception_4b/output_inception_4b/output_0_split_1
I1113 14:16:53.437548  7572 net.cpp:399] inception_4c/3x3_reduce -> inception_4c/3x3_reduce
I1113 14:16:53.439050  7572 net.cpp:141] Setting up inception_4c/3x3_reduce
I1113 14:16:53.439050  7572 net.cpp:148] Top shape: 1 128 14 14 (25088)
I1113 14:16:53.439050  7572 net.cpp:156] Memory required for data: 42687232
I1113 14:16:53.439050  7572 layer_factory.hpp:77] Creating layer inception_4c/relu_3x3_reduce
I1113 14:16:53.439050  7572 net.cpp:91] Creating Layer inception_4c/relu_3x3_reduce
I1113 14:16:53.439050  7572 net.cpp:425] inception_4c/relu_3x3_reduce <- inception_4c/3x3_reduce
I1113 14:16:53.439050  7572 net.cpp:386] inception_4c/relu_3x3_reduce -> inception_4c/3x3_reduce (in-place)
I1113 14:16:53.439050  7572 net.cpp:141] Setting up inception_4c/relu_3x3_reduce
I1113 14:16:53.439050  7572 net.cpp:148] Top shape: 1 128 14 14 (25088)
I1113 14:16:53.439050  7572 net.cpp:156] Memory required for data: 42787584
I1113 14:16:53.439050  7572 layer_factory.hpp:77] Creating layer inception_4c/3x3
I1113 14:16:53.439050  7572 net.cpp:91] Creating Layer inception_4c/3x3
I1113 14:16:53.439050  7572 net.cpp:425] inception_4c/3x3 <- inception_4c/3x3_reduce
I1113 14:16:53.439050  7572 net.cpp:399] inception_4c/3x3 -> inception_4c/3x3
I1113 14:16:53.444555  7572 net.cpp:141] Setting up inception_4c/3x3
I1113 14:16:53.444555  7572 net.cpp:148] Top shape: 1 256 14 14 (50176)
I1113 14:16:53.444555  7572 net.cpp:156] Memory required for data: 42988288
I1113 14:16:53.444555  7572 layer_factory.hpp:77] Creating layer inception_4c/relu_3x3
I1113 14:16:53.444555  7572 net.cpp:91] Creating Layer inception_4c/relu_3x3
I1113 14:16:53.444555  7572 net.cpp:425] inception_4c/relu_3x3 <- inception_4c/3x3
I1113 14:16:53.444555  7572 net.cpp:386] inception_4c/relu_3x3 -> inception_4c/3x3 (in-place)
I1113 14:16:53.444555  7572 net.cpp:141] Setting up inception_4c/relu_3x3
I1113 14:16:53.444555  7572 net.cpp:148] Top shape: 1 256 14 14 (50176)
I1113 14:16:53.444555  7572 net.cpp:156] Memory required for data: 43188992
I1113 14:16:53.444555  7572 layer_factory.hpp:77] Creating layer inception_4c/5x5_reduce
I1113 14:16:53.445055  7572 net.cpp:91] Creating Layer inception_4c/5x5_reduce
I1113 14:16:53.445055  7572 net.cpp:425] inception_4c/5x5_reduce <- inception_4b/output_inception_4b/output_0_split_2
I1113 14:16:53.445055  7572 net.cpp:399] inception_4c/5x5_reduce -> inception_4c/5x5_reduce
I1113 14:16:53.445055  7572 net.cpp:141] Setting up inception_4c/5x5_reduce
I1113 14:16:53.445055  7572 net.cpp:148] Top shape: 1 24 14 14 (4704)
I1113 14:16:53.445055  7572 net.cpp:156] Memory required for data: 43207808
I1113 14:16:53.445055  7572 layer_factory.hpp:77] Creating layer inception_4c/relu_5x5_reduce
I1113 14:16:53.445055  7572 net.cpp:91] Creating Layer inception_4c/relu_5x5_reduce
I1113 14:16:53.445055  7572 net.cpp:425] inception_4c/relu_5x5_reduce <- inception_4c/5x5_reduce
I1113 14:16:53.445055  7572 net.cpp:386] inception_4c/relu_5x5_reduce -> inception_4c/5x5_reduce (in-place)
I1113 14:16:53.445055  7572 net.cpp:141] Setting up inception_4c/relu_5x5_reduce
I1113 14:16:53.445055  7572 net.cpp:148] Top shape: 1 24 14 14 (4704)
I1113 14:16:53.445055  7572 net.cpp:156] Memory required for data: 43226624
I1113 14:16:53.445055  7572 layer_factory.hpp:77] Creating layer inception_4c/5x5
I1113 14:16:53.445055  7572 net.cpp:91] Creating Layer inception_4c/5x5
I1113 14:16:53.445055  7572 net.cpp:425] inception_4c/5x5 <- inception_4c/5x5_reduce
I1113 14:16:53.445055  7572 net.cpp:399] inception_4c/5x5 -> inception_4c/5x5
I1113 14:16:53.446055  7572 net.cpp:141] Setting up inception_4c/5x5
I1113 14:16:53.446055  7572 net.cpp:148] Top shape: 1 64 14 14 (12544)
I1113 14:16:53.446055  7572 net.cpp:156] Memory required for data: 43276800
I1113 14:16:53.446055  7572 layer_factory.hpp:77] Creating layer inception_4c/relu_5x5
I1113 14:16:53.446055  7572 net.cpp:91] Creating Layer inception_4c/relu_5x5
I1113 14:16:53.446055  7572 net.cpp:425] inception_4c/relu_5x5 <- inception_4c/5x5
I1113 14:16:53.446055  7572 net.cpp:386] inception_4c/relu_5x5 -> inception_4c/5x5 (in-place)
I1113 14:16:53.446055  7572 net.cpp:141] Setting up inception_4c/relu_5x5
I1113 14:16:53.446055  7572 net.cpp:148] Top shape: 1 64 14 14 (12544)
I1113 14:16:53.446055  7572 net.cpp:156] Memory required for data: 43326976
I1113 14:16:53.446055  7572 layer_factory.hpp:77] Creating layer inception_4c/pool
I1113 14:16:53.446055  7572 net.cpp:91] Creating Layer inception_4c/pool
I1113 14:16:53.446055  7572 net.cpp:425] inception_4c/pool <- inception_4b/output_inception_4b/output_0_split_3
I1113 14:16:53.446055  7572 net.cpp:399] inception_4c/pool -> inception_4c/pool
I1113 14:16:53.446055  7572 net.cpp:141] Setting up inception_4c/pool
I1113 14:16:53.446055  7572 net.cpp:148] Top shape: 1 512 14 14 (100352)
I1113 14:16:53.446055  7572 net.cpp:156] Memory required for data: 43728384
I1113 14:16:53.446055  7572 layer_factory.hpp:77] Creating layer inception_4c/pool_proj
I1113 14:16:53.446055  7572 net.cpp:91] Creating Layer inception_4c/pool_proj
I1113 14:16:53.446055  7572 net.cpp:425] inception_4c/pool_proj <- inception_4c/pool
I1113 14:16:53.446055  7572 net.cpp:399] inception_4c/pool_proj -> inception_4c/pool_proj
I1113 14:16:53.447055  7572 net.cpp:141] Setting up inception_4c/pool_proj
I1113 14:16:53.447055  7572 net.cpp:148] Top shape: 1 64 14 14 (12544)
I1113 14:16:53.447055  7572 net.cpp:156] Memory required for data: 43778560
I1113 14:16:53.447055  7572 layer_factory.hpp:77] Creating layer inception_4c/relu_pool_proj
I1113 14:16:53.447055  7572 net.cpp:91] Creating Layer inception_4c/relu_pool_proj
I1113 14:16:53.447055  7572 net.cpp:425] inception_4c/relu_pool_proj <- inception_4c/pool_proj
I1113 14:16:53.447055  7572 net.cpp:386] inception_4c/relu_pool_proj -> inception_4c/pool_proj (in-place)
I1113 14:16:53.447055  7572 net.cpp:141] Setting up inception_4c/relu_pool_proj
I1113 14:16:53.447055  7572 net.cpp:148] Top shape: 1 64 14 14 (12544)
I1113 14:16:53.447055  7572 net.cpp:156] Memory required for data: 43828736
I1113 14:16:53.447055  7572 layer_factory.hpp:77] Creating layer inception_4c/output
I1113 14:16:53.447055  7572 net.cpp:91] Creating Layer inception_4c/output
I1113 14:16:53.447055  7572 net.cpp:425] inception_4c/output <- inception_4c/1x1
I1113 14:16:53.447055  7572 net.cpp:425] inception_4c/output <- inception_4c/3x3
I1113 14:16:53.447055  7572 net.cpp:425] inception_4c/output <- inception_4c/5x5
I1113 14:16:53.447055  7572 net.cpp:425] inception_4c/output <- inception_4c/pool_proj
I1113 14:16:53.447055  7572 net.cpp:399] inception_4c/output -> inception_4c/output
I1113 14:16:53.447055  7572 net.cpp:141] Setting up inception_4c/output
I1113 14:16:53.447055  7572 net.cpp:148] Top shape: 1 512 14 14 (100352)
I1113 14:16:53.447055  7572 net.cpp:156] Memory required for data: 44230144
I1113 14:16:53.447055  7572 layer_factory.hpp:77] Creating layer inception_4c/output_inception_4c/output_0_split
I1113 14:16:53.447055  7572 net.cpp:91] Creating Layer inception_4c/output_inception_4c/output_0_split
I1113 14:16:53.447055  7572 net.cpp:425] inception_4c/output_inception_4c/output_0_split <- inception_4c/output
I1113 14:16:53.447055  7572 net.cpp:399] inception_4c/output_inception_4c/output_0_split -> inception_4c/output_inception_4c/output_0_split_0
I1113 14:16:53.447055  7572 net.cpp:399] inception_4c/output_inception_4c/output_0_split -> inception_4c/output_inception_4c/output_0_split_1
I1113 14:16:53.447055  7572 net.cpp:399] inception_4c/output_inception_4c/output_0_split -> inception_4c/output_inception_4c/output_0_split_2
I1113 14:16:53.447055  7572 net.cpp:399] inception_4c/output_inception_4c/output_0_split -> inception_4c/output_inception_4c/output_0_split_3
I1113 14:16:53.447556  7572 net.cpp:141] Setting up inception_4c/output_inception_4c/output_0_split
I1113 14:16:53.447556  7572 net.cpp:148] Top shape: 1 512 14 14 (100352)
I1113 14:16:53.447556  7572 net.cpp:148] Top shape: 1 512 14 14 (100352)
I1113 14:16:53.447556  7572 net.cpp:148] Top shape: 1 512 14 14 (100352)
I1113 14:16:53.447556  7572 net.cpp:148] Top shape: 1 512 14 14 (100352)
I1113 14:16:53.447556  7572 net.cpp:156] Memory required for data: 45835776
I1113 14:16:53.447556  7572 layer_factory.hpp:77] Creating layer inception_4d/1x1
I1113 14:16:53.447556  7572 net.cpp:91] Creating Layer inception_4d/1x1
I1113 14:16:53.447556  7572 net.cpp:425] inception_4d/1x1 <- inception_4c/output_inception_4c/output_0_split_0
I1113 14:16:53.447556  7572 net.cpp:399] inception_4d/1x1 -> inception_4d/1x1
I1113 14:16:53.448556  7572 net.cpp:141] Setting up inception_4d/1x1
I1113 14:16:53.448556  7572 net.cpp:148] Top shape: 1 112 14 14 (21952)
I1113 14:16:53.448556  7572 net.cpp:156] Memory required for data: 45923584
I1113 14:16:53.448556  7572 layer_factory.hpp:77] Creating layer inception_4d/relu_1x1
I1113 14:16:53.448556  7572 net.cpp:91] Creating Layer inception_4d/relu_1x1
I1113 14:16:53.448556  7572 net.cpp:425] inception_4d/relu_1x1 <- inception_4d/1x1
I1113 14:16:53.448556  7572 net.cpp:386] inception_4d/relu_1x1 -> inception_4d/1x1 (in-place)
I1113 14:16:53.448556  7572 net.cpp:141] Setting up inception_4d/relu_1x1
I1113 14:16:53.448556  7572 net.cpp:148] Top shape: 1 112 14 14 (21952)
I1113 14:16:53.448556  7572 net.cpp:156] Memory required for data: 46011392
I1113 14:16:53.448556  7572 layer_factory.hpp:77] Creating layer inception_4d/3x3_reduce
I1113 14:16:53.448556  7572 net.cpp:91] Creating Layer inception_4d/3x3_reduce
I1113 14:16:53.448556  7572 net.cpp:425] inception_4d/3x3_reduce <- inception_4c/output_inception_4c/output_0_split_1
I1113 14:16:53.448556  7572 net.cpp:399] inception_4d/3x3_reduce -> inception_4d/3x3_reduce
I1113 14:16:53.450057  7572 net.cpp:141] Setting up inception_4d/3x3_reduce
I1113 14:16:53.450057  7572 net.cpp:148] Top shape: 1 144 14 14 (28224)
I1113 14:16:53.450057  7572 net.cpp:156] Memory required for data: 46124288
I1113 14:16:53.450057  7572 layer_factory.hpp:77] Creating layer inception_4d/relu_3x3_reduce
I1113 14:16:53.450057  7572 net.cpp:91] Creating Layer inception_4d/relu_3x3_reduce
I1113 14:16:53.450057  7572 net.cpp:425] inception_4d/relu_3x3_reduce <- inception_4d/3x3_reduce
I1113 14:16:53.450057  7572 net.cpp:386] inception_4d/relu_3x3_reduce -> inception_4d/3x3_reduce (in-place)
I1113 14:16:53.450057  7572 net.cpp:141] Setting up inception_4d/relu_3x3_reduce
I1113 14:16:53.450057  7572 net.cpp:148] Top shape: 1 144 14 14 (28224)
I1113 14:16:53.450057  7572 net.cpp:156] Memory required for data: 46237184
I1113 14:16:53.450057  7572 layer_factory.hpp:77] Creating layer inception_4d/3x3
I1113 14:16:53.450057  7572 net.cpp:91] Creating Layer inception_4d/3x3
I1113 14:16:53.450057  7572 net.cpp:425] inception_4d/3x3 <- inception_4d/3x3_reduce
I1113 14:16:53.450057  7572 net.cpp:399] inception_4d/3x3 -> inception_4d/3x3
I1113 14:16:53.456562  7572 net.cpp:141] Setting up inception_4d/3x3
I1113 14:16:53.456562  7572 net.cpp:148] Top shape: 1 288 14 14 (56448)
I1113 14:16:53.456562  7572 net.cpp:156] Memory required for data: 46462976
I1113 14:16:53.456562  7572 layer_factory.hpp:77] Creating layer inception_4d/relu_3x3
I1113 14:16:53.456562  7572 net.cpp:91] Creating Layer inception_4d/relu_3x3
I1113 14:16:53.456562  7572 net.cpp:425] inception_4d/relu_3x3 <- inception_4d/3x3
I1113 14:16:53.456562  7572 net.cpp:386] inception_4d/relu_3x3 -> inception_4d/3x3 (in-place)
I1113 14:16:53.456562  7572 net.cpp:141] Setting up inception_4d/relu_3x3
I1113 14:16:53.456562  7572 net.cpp:148] Top shape: 1 288 14 14 (56448)
I1113 14:16:53.456562  7572 net.cpp:156] Memory required for data: 46688768
I1113 14:16:53.456562  7572 layer_factory.hpp:77] Creating layer inception_4d/5x5_reduce
I1113 14:16:53.456562  7572 net.cpp:91] Creating Layer inception_4d/5x5_reduce
I1113 14:16:53.456562  7572 net.cpp:425] inception_4d/5x5_reduce <- inception_4c/output_inception_4c/output_0_split_2
I1113 14:16:53.456562  7572 net.cpp:399] inception_4d/5x5_reduce -> inception_4d/5x5_reduce
I1113 14:16:53.457062  7572 net.cpp:141] Setting up inception_4d/5x5_reduce
I1113 14:16:53.457062  7572 net.cpp:148] Top shape: 1 32 14 14 (6272)
I1113 14:16:53.457062  7572 net.cpp:156] Memory required for data: 46713856
I1113 14:16:53.457062  7572 layer_factory.hpp:77] Creating layer inception_4d/relu_5x5_reduce
I1113 14:16:53.457062  7572 net.cpp:91] Creating Layer inception_4d/relu_5x5_reduce
I1113 14:16:53.457062  7572 net.cpp:425] inception_4d/relu_5x5_reduce <- inception_4d/5x5_reduce
I1113 14:16:53.457062  7572 net.cpp:386] inception_4d/relu_5x5_reduce -> inception_4d/5x5_reduce (in-place)
I1113 14:16:53.457062  7572 net.cpp:141] Setting up inception_4d/relu_5x5_reduce
I1113 14:16:53.457062  7572 net.cpp:148] Top shape: 1 32 14 14 (6272)
I1113 14:16:53.457062  7572 net.cpp:156] Memory required for data: 46738944
I1113 14:16:53.457062  7572 layer_factory.hpp:77] Creating layer inception_4d/5x5
I1113 14:16:53.457062  7572 net.cpp:91] Creating Layer inception_4d/5x5
I1113 14:16:53.457062  7572 net.cpp:425] inception_4d/5x5 <- inception_4d/5x5_reduce
I1113 14:16:53.457062  7572 net.cpp:399] inception_4d/5x5 -> inception_4d/5x5
I1113 14:16:53.458063  7572 net.cpp:141] Setting up inception_4d/5x5
I1113 14:16:53.458063  7572 net.cpp:148] Top shape: 1 64 14 14 (12544)
I1113 14:16:53.458063  7572 net.cpp:156] Memory required for data: 46789120
I1113 14:16:53.458063  7572 layer_factory.hpp:77] Creating layer inception_4d/relu_5x5
I1113 14:16:53.458063  7572 net.cpp:91] Creating Layer inception_4d/relu_5x5
I1113 14:16:53.458063  7572 net.cpp:425] inception_4d/relu_5x5 <- inception_4d/5x5
I1113 14:16:53.458063  7572 net.cpp:386] inception_4d/relu_5x5 -> inception_4d/5x5 (in-place)
I1113 14:16:53.458063  7572 net.cpp:141] Setting up inception_4d/relu_5x5
I1113 14:16:53.458063  7572 net.cpp:148] Top shape: 1 64 14 14 (12544)
I1113 14:16:53.458063  7572 net.cpp:156] Memory required for data: 46839296
I1113 14:16:53.458564  7572 layer_factory.hpp:77] Creating layer inception_4d/pool
I1113 14:16:53.458564  7572 net.cpp:91] Creating Layer inception_4d/pool
I1113 14:16:53.458564  7572 net.cpp:425] inception_4d/pool <- inception_4c/output_inception_4c/output_0_split_3
I1113 14:16:53.458564  7572 net.cpp:399] inception_4d/pool -> inception_4d/pool
I1113 14:16:53.458564  7572 net.cpp:141] Setting up inception_4d/pool
I1113 14:16:53.458564  7572 net.cpp:148] Top shape: 1 512 14 14 (100352)
I1113 14:16:53.458564  7572 net.cpp:156] Memory required for data: 47240704
I1113 14:16:53.458564  7572 layer_factory.hpp:77] Creating layer inception_4d/pool_proj
I1113 14:16:53.458564  7572 net.cpp:91] Creating Layer inception_4d/pool_proj
I1113 14:16:53.458564  7572 net.cpp:425] inception_4d/pool_proj <- inception_4d/pool
I1113 14:16:53.458564  7572 net.cpp:399] inception_4d/pool_proj -> inception_4d/pool_proj
I1113 14:16:53.459064  7572 net.cpp:141] Setting up inception_4d/pool_proj
I1113 14:16:53.459064  7572 net.cpp:148] Top shape: 1 64 14 14 (12544)
I1113 14:16:53.459064  7572 net.cpp:156] Memory required for data: 47290880
I1113 14:16:53.459064  7572 layer_factory.hpp:77] Creating layer inception_4d/relu_pool_proj
I1113 14:16:53.459064  7572 net.cpp:91] Creating Layer inception_4d/relu_pool_proj
I1113 14:16:53.459064  7572 net.cpp:425] inception_4d/relu_pool_proj <- inception_4d/pool_proj
I1113 14:16:53.459064  7572 net.cpp:386] inception_4d/relu_pool_proj -> inception_4d/pool_proj (in-place)
I1113 14:16:53.459064  7572 net.cpp:141] Setting up inception_4d/relu_pool_proj
I1113 14:16:53.459064  7572 net.cpp:148] Top shape: 1 64 14 14 (12544)
I1113 14:16:53.459064  7572 net.cpp:156] Memory required for data: 47341056
I1113 14:16:53.459064  7572 layer_factory.hpp:77] Creating layer inception_4d/output
I1113 14:16:53.459064  7572 net.cpp:91] Creating Layer inception_4d/output
I1113 14:16:53.459064  7572 net.cpp:425] inception_4d/output <- inception_4d/1x1
I1113 14:16:53.459064  7572 net.cpp:425] inception_4d/output <- inception_4d/3x3
I1113 14:16:53.459064  7572 net.cpp:425] inception_4d/output <- inception_4d/5x5
I1113 14:16:53.459064  7572 net.cpp:425] inception_4d/output <- inception_4d/pool_proj
I1113 14:16:53.459565  7572 net.cpp:399] inception_4d/output -> inception_4d/output
I1113 14:16:53.459565  7572 net.cpp:141] Setting up inception_4d/output
I1113 14:16:53.459565  7572 net.cpp:148] Top shape: 1 528 14 14 (103488)
I1113 14:16:53.459565  7572 net.cpp:156] Memory required for data: 47755008
I1113 14:16:53.459565  7572 layer_factory.hpp:77] Creating layer inception_4d/output_inception_4d/output_0_split
I1113 14:16:53.459565  7572 net.cpp:91] Creating Layer inception_4d/output_inception_4d/output_0_split
I1113 14:16:53.459565  7572 net.cpp:425] inception_4d/output_inception_4d/output_0_split <- inception_4d/output
I1113 14:16:53.459565  7572 net.cpp:399] inception_4d/output_inception_4d/output_0_split -> inception_4d/output_inception_4d/output_0_split_0
I1113 14:16:53.459565  7572 net.cpp:399] inception_4d/output_inception_4d/output_0_split -> inception_4d/output_inception_4d/output_0_split_1
I1113 14:16:53.459565  7572 net.cpp:399] inception_4d/output_inception_4d/output_0_split -> inception_4d/output_inception_4d/output_0_split_2
I1113 14:16:53.459565  7572 net.cpp:399] inception_4d/output_inception_4d/output_0_split -> inception_4d/output_inception_4d/output_0_split_3
I1113 14:16:53.459565  7572 net.cpp:141] Setting up inception_4d/output_inception_4d/output_0_split
I1113 14:16:53.459565  7572 net.cpp:148] Top shape: 1 528 14 14 (103488)
I1113 14:16:53.459565  7572 net.cpp:148] Top shape: 1 528 14 14 (103488)
I1113 14:16:53.459565  7572 net.cpp:148] Top shape: 1 528 14 14 (103488)
I1113 14:16:53.459565  7572 net.cpp:148] Top shape: 1 528 14 14 (103488)
I1113 14:16:53.459565  7572 net.cpp:156] Memory required for data: 49410816
I1113 14:16:53.459565  7572 layer_factory.hpp:77] Creating layer inception_4e/1x1
I1113 14:16:53.459565  7572 net.cpp:91] Creating Layer inception_4e/1x1
I1113 14:16:53.459565  7572 net.cpp:425] inception_4e/1x1 <- inception_4d/output_inception_4d/output_0_split_0
I1113 14:16:53.459565  7572 net.cpp:399] inception_4e/1x1 -> inception_4e/1x1
I1113 14:16:53.462066  7572 net.cpp:141] Setting up inception_4e/1x1
I1113 14:16:53.462066  7572 net.cpp:148] Top shape: 1 256 14 14 (50176)
I1113 14:16:53.462066  7572 net.cpp:156] Memory required for data: 49611520
I1113 14:16:53.462066  7572 layer_factory.hpp:77] Creating layer inception_4e/relu_1x1
I1113 14:16:53.462066  7572 net.cpp:91] Creating Layer inception_4e/relu_1x1
I1113 14:16:53.462066  7572 net.cpp:425] inception_4e/relu_1x1 <- inception_4e/1x1
I1113 14:16:53.462066  7572 net.cpp:386] inception_4e/relu_1x1 -> inception_4e/1x1 (in-place)
I1113 14:16:53.462066  7572 net.cpp:141] Setting up inception_4e/relu_1x1
I1113 14:16:53.462066  7572 net.cpp:148] Top shape: 1 256 14 14 (50176)
I1113 14:16:53.462066  7572 net.cpp:156] Memory required for data: 49812224
I1113 14:16:53.462066  7572 layer_factory.hpp:77] Creating layer inception_4e/3x3_reduce
I1113 14:16:53.462066  7572 net.cpp:91] Creating Layer inception_4e/3x3_reduce
I1113 14:16:53.462066  7572 net.cpp:425] inception_4e/3x3_reduce <- inception_4d/output_inception_4d/output_0_split_1
I1113 14:16:53.462066  7572 net.cpp:399] inception_4e/3x3_reduce -> inception_4e/3x3_reduce
I1113 14:16:53.463567  7572 net.cpp:141] Setting up inception_4e/3x3_reduce
I1113 14:16:53.463567  7572 net.cpp:148] Top shape: 1 160 14 14 (31360)
I1113 14:16:53.463567  7572 net.cpp:156] Memory required for data: 49937664
I1113 14:16:53.463567  7572 layer_factory.hpp:77] Creating layer inception_4e/relu_3x3_reduce
I1113 14:16:53.463567  7572 net.cpp:91] Creating Layer inception_4e/relu_3x3_reduce
I1113 14:16:53.463567  7572 net.cpp:425] inception_4e/relu_3x3_reduce <- inception_4e/3x3_reduce
I1113 14:16:53.463567  7572 net.cpp:386] inception_4e/relu_3x3_reduce -> inception_4e/3x3_reduce (in-place)
I1113 14:16:53.463567  7572 net.cpp:141] Setting up inception_4e/relu_3x3_reduce
I1113 14:16:53.463567  7572 net.cpp:148] Top shape: 1 160 14 14 (31360)
I1113 14:16:53.463567  7572 net.cpp:156] Memory required for data: 50063104
I1113 14:16:53.463567  7572 layer_factory.hpp:77] Creating layer inception_4e/3x3
I1113 14:16:53.463567  7572 net.cpp:91] Creating Layer inception_4e/3x3
I1113 14:16:53.463567  7572 net.cpp:425] inception_4e/3x3 <- inception_4e/3x3_reduce
I1113 14:16:53.463567  7572 net.cpp:399] inception_4e/3x3 -> inception_4e/3x3
I1113 14:16:53.471573  7572 net.cpp:141] Setting up inception_4e/3x3
I1113 14:16:53.471573  7572 net.cpp:148] Top shape: 1 320 14 14 (62720)
I1113 14:16:53.471573  7572 net.cpp:156] Memory required for data: 50313984
I1113 14:16:53.471573  7572 layer_factory.hpp:77] Creating layer inception_4e/relu_3x3
I1113 14:16:53.471573  7572 net.cpp:91] Creating Layer inception_4e/relu_3x3
I1113 14:16:53.471573  7572 net.cpp:425] inception_4e/relu_3x3 <- inception_4e/3x3
I1113 14:16:53.471573  7572 net.cpp:386] inception_4e/relu_3x3 -> inception_4e/3x3 (in-place)
I1113 14:16:53.471573  7572 net.cpp:141] Setting up inception_4e/relu_3x3
I1113 14:16:53.471573  7572 net.cpp:148] Top shape: 1 320 14 14 (62720)
I1113 14:16:53.471573  7572 net.cpp:156] Memory required for data: 50564864
I1113 14:16:53.471573  7572 layer_factory.hpp:77] Creating layer inception_4e/5x5_reduce
I1113 14:16:53.471573  7572 net.cpp:91] Creating Layer inception_4e/5x5_reduce
I1113 14:16:53.471573  7572 net.cpp:425] inception_4e/5x5_reduce <- inception_4d/output_inception_4d/output_0_split_2
I1113 14:16:53.471573  7572 net.cpp:399] inception_4e/5x5_reduce -> inception_4e/5x5_reduce
I1113 14:16:53.472074  7572 net.cpp:141] Setting up inception_4e/5x5_reduce
I1113 14:16:53.472074  7572 net.cpp:148] Top shape: 1 32 14 14 (6272)
I1113 14:16:53.472074  7572 net.cpp:156] Memory required for data: 50589952
I1113 14:16:53.472074  7572 layer_factory.hpp:77] Creating layer inception_4e/relu_5x5_reduce
I1113 14:16:53.472074  7572 net.cpp:91] Creating Layer inception_4e/relu_5x5_reduce
I1113 14:16:53.472074  7572 net.cpp:425] inception_4e/relu_5x5_reduce <- inception_4e/5x5_reduce
I1113 14:16:53.472074  7572 net.cpp:386] inception_4e/relu_5x5_reduce -> inception_4e/5x5_reduce (in-place)
I1113 14:16:53.472074  7572 net.cpp:141] Setting up inception_4e/relu_5x5_reduce
I1113 14:16:53.472074  7572 net.cpp:148] Top shape: 1 32 14 14 (6272)
I1113 14:16:53.472074  7572 net.cpp:156] Memory required for data: 50615040
I1113 14:16:53.472074  7572 layer_factory.hpp:77] Creating layer inception_4e/5x5
I1113 14:16:53.472074  7572 net.cpp:91] Creating Layer inception_4e/5x5
I1113 14:16:53.472074  7572 net.cpp:425] inception_4e/5x5 <- inception_4e/5x5_reduce
I1113 14:16:53.472074  7572 net.cpp:399] inception_4e/5x5 -> inception_4e/5x5
I1113 14:16:53.474076  7572 net.cpp:141] Setting up inception_4e/5x5
I1113 14:16:53.474076  7572 net.cpp:148] Top shape: 1 128 14 14 (25088)
I1113 14:16:53.474076  7572 net.cpp:156] Memory required for data: 50715392
I1113 14:16:53.474076  7572 layer_factory.hpp:77] Creating layer inception_4e/relu_5x5
I1113 14:16:53.474076  7572 net.cpp:91] Creating Layer inception_4e/relu_5x5
I1113 14:16:53.474076  7572 net.cpp:425] inception_4e/relu_5x5 <- inception_4e/5x5
I1113 14:16:53.474076  7572 net.cpp:386] inception_4e/relu_5x5 -> inception_4e/5x5 (in-place)
I1113 14:16:53.474076  7572 net.cpp:141] Setting up inception_4e/relu_5x5
I1113 14:16:53.474076  7572 net.cpp:148] Top shape: 1 128 14 14 (25088)
I1113 14:16:53.474076  7572 net.cpp:156] Memory required for data: 50815744
I1113 14:16:53.474076  7572 layer_factory.hpp:77] Creating layer inception_4e/pool
I1113 14:16:53.474076  7572 net.cpp:91] Creating Layer inception_4e/pool
I1113 14:16:53.474076  7572 net.cpp:425] inception_4e/pool <- inception_4d/output_inception_4d/output_0_split_3
I1113 14:16:53.474076  7572 net.cpp:399] inception_4e/pool -> inception_4e/pool
I1113 14:16:53.474076  7572 net.cpp:141] Setting up inception_4e/pool
I1113 14:16:53.474076  7572 net.cpp:148] Top shape: 1 528 14 14 (103488)
I1113 14:16:53.474076  7572 net.cpp:156] Memory required for data: 51229696
I1113 14:16:53.474076  7572 layer_factory.hpp:77] Creating layer inception_4e/pool_proj
I1113 14:16:53.474076  7572 net.cpp:91] Creating Layer inception_4e/pool_proj
I1113 14:16:53.474076  7572 net.cpp:425] inception_4e/pool_proj <- inception_4e/pool
I1113 14:16:53.474076  7572 net.cpp:399] inception_4e/pool_proj -> inception_4e/pool_proj
I1113 14:16:53.475075  7572 net.cpp:141] Setting up inception_4e/pool_proj
I1113 14:16:53.475075  7572 net.cpp:148] Top shape: 1 128 14 14 (25088)
I1113 14:16:53.475075  7572 net.cpp:156] Memory required for data: 51330048
I1113 14:16:53.475075  7572 layer_factory.hpp:77] Creating layer inception_4e/relu_pool_proj
I1113 14:16:53.475075  7572 net.cpp:91] Creating Layer inception_4e/relu_pool_proj
I1113 14:16:53.475075  7572 net.cpp:425] inception_4e/relu_pool_proj <- inception_4e/pool_proj
I1113 14:16:53.475575  7572 net.cpp:386] inception_4e/relu_pool_proj -> inception_4e/pool_proj (in-place)
I1113 14:16:53.475575  7572 net.cpp:141] Setting up inception_4e/relu_pool_proj
I1113 14:16:53.475575  7572 net.cpp:148] Top shape: 1 128 14 14 (25088)
I1113 14:16:53.475575  7572 net.cpp:156] Memory required for data: 51430400
I1113 14:16:53.475575  7572 layer_factory.hpp:77] Creating layer inception_4e/output
I1113 14:16:53.475575  7572 net.cpp:91] Creating Layer inception_4e/output
I1113 14:16:53.475575  7572 net.cpp:425] inception_4e/output <- inception_4e/1x1
I1113 14:16:53.475575  7572 net.cpp:425] inception_4e/output <- inception_4e/3x3
I1113 14:16:53.475575  7572 net.cpp:425] inception_4e/output <- inception_4e/5x5
I1113 14:16:53.475575  7572 net.cpp:425] inception_4e/output <- inception_4e/pool_proj
I1113 14:16:53.475575  7572 net.cpp:399] inception_4e/output -> inception_4e/output
I1113 14:16:53.475575  7572 net.cpp:141] Setting up inception_4e/output
I1113 14:16:53.475575  7572 net.cpp:148] Top shape: 1 832 14 14 (163072)
I1113 14:16:53.475575  7572 net.cpp:156] Memory required for data: 52082688
I1113 14:16:53.475575  7572 layer_factory.hpp:77] Creating layer CAM_conv
I1113 14:16:53.475575  7572 net.cpp:91] Creating Layer CAM_conv
I1113 14:16:53.475575  7572 net.cpp:425] CAM_conv <- inception_4e/output
I1113 14:16:53.475575  7572 net.cpp:399] CAM_conv -> CAM_conv
I1113 14:16:53.594159  7572 net.cpp:141] Setting up CAM_conv
I1113 14:16:53.594159  7572 net.cpp:148] Top shape: 1 1024 14 14 (200704)
I1113 14:16:53.594159  7572 net.cpp:156] Memory required for data: 52885504
I1113 14:16:53.594159  7572 layer_factory.hpp:77] Creating layer CAM_relu
I1113 14:16:53.594159  7572 net.cpp:91] Creating Layer CAM_relu
I1113 14:16:53.594159  7572 net.cpp:425] CAM_relu <- CAM_conv
I1113 14:16:53.594159  7572 net.cpp:386] CAM_relu -> CAM_conv (in-place)
I1113 14:16:53.594159  7572 net.cpp:141] Setting up CAM_relu
I1113 14:16:53.594159  7572 net.cpp:148] Top shape: 1 1024 14 14 (200704)
I1113 14:16:53.594159  7572 net.cpp:156] Memory required for data: 53688320
I1113 14:16:53.594159  7572 layer_factory.hpp:77] Creating layer CAM_pool
I1113 14:16:53.594159  7572 net.cpp:91] Creating Layer CAM_pool
I1113 14:16:53.594159  7572 net.cpp:425] CAM_pool <- CAM_conv
I1113 14:16:53.594159  7572 net.cpp:399] CAM_pool -> CAM_pool
I1113 14:16:53.594159  7572 net.cpp:141] Setting up CAM_pool
I1113 14:16:53.594660  7572 net.cpp:148] Top shape: 1 1024 1 1 (1024)
I1113 14:16:53.594660  7572 net.cpp:156] Memory required for data: 53692416
I1113 14:16:53.594660  7572 layer_factory.hpp:77] Creating layer CAM_fc
I1113 14:16:53.594660  7572 net.cpp:91] Creating Layer CAM_fc
I1113 14:16:53.594660  7572 net.cpp:425] CAM_fc <- CAM_pool
I1113 14:16:53.594660  7572 net.cpp:399] CAM_fc -> CAM_fc
I1113 14:16:53.611172  7572 net.cpp:141] Setting up CAM_fc
I1113 14:16:53.611172  7572 net.cpp:148] Top shape: 1 1000 (1000)
I1113 14:16:53.611172  7572 net.cpp:156] Memory required for data: 53696416
I1113 14:16:53.611172  7572 layer_factory.hpp:77] Creating layer prob
I1113 14:16:53.611172  7572 net.cpp:91] Creating Layer prob
I1113 14:16:53.611172  7572 net.cpp:425] prob <- CAM_fc
I1113 14:16:53.611172  7572 net.cpp:399] prob -> prob
I1113 14:16:53.611172  7572 net.cpp:141] Setting up prob
I1113 14:16:53.611172  7572 net.cpp:148] Top shape: 1 1000 (1000)
I1113 14:16:53.611172  7572 net.cpp:156] Memory required for data: 53700416
I1113 14:16:53.611172  7572 net.cpp:219] prob does not need backward computation.
I1113 14:16:53.611172  7572 net.cpp:219] CAM_fc does not need backward computation.
I1113 14:16:53.611172  7572 net.cpp:219] CAM_pool does not need backward computation.
I1113 14:16:53.611172  7572 net.cpp:219] CAM_relu does not need backward computation.
…
